…
	Label shapes: {'sub_bytes_in__0': torch.Size([]), 'sub_bytes_in__1': torch.Size([]), 'sub_bytes_in__2': torch.Size([]), 'sub_bytes_in__3': torch.Size([]), 'sub_bytes_in__4': torch.Size([]), 'sub_bytes_in__5': torch.Size([]), 'sub_bytes_in__6': torch.Size([]), 'sub_bytes_in__7': torch.Size([]), 'sub_bytes_in__8': torch.Size([]), 'sub_bytes_in__9': torch.Size([]), 'sub_bytes_in__10': torch.Size([]), 'sub_bytes_in__11': torch.Size([]), 'sub_bytes_in__12': torch.Size([]), 'sub_bytes_in__13': torch.Size([]), 'sub_bytes_in__14': torch.Size([]), 'sub_bytes_in__15': torch.Size([])}
	Number of shards: 256
	Samples per shard: 256
	Transform: None
	Bytes: [0, 1, 2, 3, 4, 5, 6, 7, 8, 9, 10, 11, 12, 13, 14, 15]
	Attack points: ['sub_bytes_in']
	Interval to use: [0, 20000]
	Downsampling ratio: 4
	Whiten traces: True



AveragedModel(
  (class_embedding): Linear(in_features=144, out_features=256, bias=True)
  (class_conditional_bias): ConvTranspose1d(256, 1, kernel_size=(5000,), stride=(1,))
  (input_transform): Conv1d(1, 32, kernel_size=(3,), stride=(1,), padding=(1,))
  (resampler): WrapWithResampler(
    (rp_i): ConditionalGeneratorBlock(
      (rc_bn0): ConditionalBatchNorm(
        32, class_embedding_size=256, momentum=0.1, affine=True, track_running_stats=True
        (class_to_weight_transform): Linear(in_features=256, out_features=32, bias=True)
        (class_to_bias_transform): Linear(in_features=256, out_features=32, bias=True)
      )
      (rc_act0): ReLU(inplace=True)
      (rc_cv0): Conv1d(32, 16, kernel_size=(1,), stride=(1,))
      (rc_bn1): ConditionalBatchNorm(
        16, class_embedding_size=256, momentum=0.1, affine=True, track_running_stats=True
        (class_to_weight_transform): Linear(in_features=256, out_features=16, bias=True)
        (class_to_bias_transform): Linear(in_features=256, out_features=16, bias=True)
      )
      (rc_act1): ReLU(inplace=True)
      (rc_cv1): Conv1d(16, 16, kernel_size=(3,), stride=(2,), padding=(1,))
      (rc_bn2): ConditionalBatchNorm(
        16, class_embedding_size=256, momentum=0.1, affine=True, track_running_stats=True
        (class_to_weight_transform): Linear(in_features=256, out_features=16, bias=True)
        (class_to_bias_transform): Linear(in_features=256, out_features=16, bias=True)
      )
      (rc_act2): ReLU(inplace=True)
      (rc_cv2): Conv1d(16, 64, kernel_size=(1,), stride=(1,))
      (sc): Conv1d(32, 64, kernel_size=(2,), stride=(2,))
    )
    (rp_sm): WrapWithResampler(
      (rp_i): ConditionalGeneratorBlock(
        (rc_bn0): ConditionalBatchNorm(
          64, class_embedding_size=256, momentum=0.1, affine=True, track_running_stats=True
          (class_to_weight_transform): Linear(in_features=256, out_features=64, bias=True)
          (class_to_bias_transform): Linear(in_features=256, out_features=64, bias=True)
        )
        (rc_act0): ReLU(inplace=True)
        (rc_cv0): Conv1d(64, 32, kernel_size=(1,), stride=(1,))
        (rc_bn1): ConditionalBatchNorm(
          32, class_embedding_size=256, momentum=0.1, affine=True, track_running_stats=True
          (class_to_weight_transform): Linear(in_features=256, out_features=32, bias=True)
          (class_to_bias_transform): Linear(in_features=256, out_features=32, bias=True)
        )
        (rc_act1): ReLU(inplace=True)
        (rc_cv1): Conv1d(32, 32, kernel_size=(3,), stride=(2,), padding=(1,))
        (rc_bn2): ConditionalBatchNorm(
          32, class_embedding_size=256, momentum=0.1, affine=True, track_running_stats=True
          (class_to_weight_transform): Linear(in_features=256, out_features=32, bias=True)
          (class_to_bias_transform): Linear(in_features=256, out_features=32, bias=True)
        )
        (rc_act2): ReLU(inplace=True)
        (rc_cv2): Conv1d(32, 128, kernel_size=(1,), stride=(1,))
        (sc): Conv1d(64, 128, kernel_size=(2,), stride=(2,))
      )
      (rp_sm): WrapWithResampler(
        (rp_i): ConditionalGeneratorBlock(
          (rc_bn0): ConditionalBatchNorm(
            128, class_embedding_size=256, momentum=0.1, affine=True, track_running_stats=True
            (class_to_weight_transform): Linear(in_features=256, out_features=128, bias=True)
            (class_to_bias_transform): Linear(in_features=256, out_features=128, bias=True)
          )
          (rc_act0): ReLU(inplace=True)
          (rc_cv0): Conv1d(128, 64, kernel_size=(1,), stride=(1,))
          (rc_bn1): ConditionalBatchNorm(
            64, class_embedding_size=256, momentum=0.1, affine=True, track_running_stats=True
            (class_to_weight_transform): Linear(in_features=256, out_features=64, bias=True)
            (class_to_bias_transform): Linear(in_features=256, out_features=64, bias=True)
          )
          (rc_act1): ReLU(inplace=True)
          (rc_cv1): Conv1d(64, 64, kernel_size=(3,), stride=(2,), padding=(1,))
          (rc_bn2): ConditionalBatchNorm(
            64, class_embedding_size=256, momentum=0.1, affine=True, track_running_stats=True
            (class_to_weight_transform): Linear(in_features=256, out_features=64, bias=True)
            (class_to_bias_transform): Linear(in_features=256, out_features=64, bias=True)
          )
          (rc_act2): ReLU(inplace=True)
          (rc_cv2): Conv1d(64, 256, kernel_size=(1,), stride=(1,))
          (sc): Conv1d(128, 256, kernel_size=(2,), stride=(2,))
        )
        (rp_sm): WrapWithResampler(
          (rp_i): ConditionalGeneratorBlock(
            (rc_bn0): ConditionalBatchNorm(
              256, class_embedding_size=256, momentum=0.1, affine=True, track_running_stats=True
              (class_to_weight_transform): Linear(in_features=256, out_features=256, bias=True)
              (class_to_bias_transform): Linear(in_features=256, out_features=256, bias=True)
            )
            (rc_act0): ReLU(inplace=True)
            (rc_cv0): Conv1d(256, 128, kernel_size=(1,), stride=(1,))
            (rc_bn1): ConditionalBatchNorm(
              128, class_embedding_size=256, momentum=0.1, affine=True, track_running_stats=True
              (class_to_weight_transform): Linear(in_features=256, out_features=128, bias=True)
              (class_to_bias_transform): Linear(in_features=256, out_features=128, bias=True)
            )
            (rc_act1): ReLU(inplace=True)
            (rc_cv1): Conv1d(128, 128, kernel_size=(3,), stride=(2,), padding=(1,))
            (rc_bn2): ConditionalBatchNorm(
              128, class_embedding_size=256, momentum=0.1, affine=True, track_running_stats=True
              (class_to_weight_transform): Linear(in_features=256, out_features=128, bias=True)
              (class_to_bias_transform): Linear(in_features=256, out_features=128, bias=True)
            )
            (rc_act2): ReLU(inplace=True)
            (rc_cv2): Conv1d(128, 512, kernel_size=(1,), stride=(1,))
            (sc): Conv1d(256, 512, kernel_size=(2,), stride=(2,))
          )
          (rp_sm): Seq2i(
            (0): ConditionalGeneratorBlock(
              (rc_bn0): ConditionalBatchNorm(
                512, class_embedding_size=256, momentum=0.1, affine=True, track_running_stats=True
                (class_to_weight_transform): Linear(in_features=256, out_features=512, bias=True)
                (class_to_bias_transform): Linear(in_features=256, out_features=512, bias=True)
              )
              (rc_act0): ReLU(inplace=True)
              (rc_cv0): Conv1d(512, 128, kernel_size=(1,), stride=(1,))
              (rc_bn1): ConditionalBatchNorm(
                128, class_embedding_size=256, momentum=0.1, affine=True, track_running_stats=True
                (class_to_weight_transform): Linear(in_features=256, out_features=128, bias=True)
                (class_to_bias_transform): Linear(in_features=256, out_features=128, bias=True)
              )
              (rc_act1): ReLU(inplace=True)
              (rc_cv1): Conv1d(128, 128, kernel_size=(3,), stride=(1,), padding=(1,))
              (rc_bn2): ConditionalBatchNorm(
                128, class_embedding_size=256, momentum=0.1, affine=True, track_running_stats=True
                (class_to_weight_transform): Linear(in_features=256, out_features=128, bias=True)
                (class_to_bias_transform): Linear(in_features=256, out_features=128, bias=True)
              )
              (rc_act2): ReLU(inplace=True)
              (rc_cv2): Conv1d(128, 512, kernel_size=(1,), stride=(1,))
              (sc): Sequential()
            )
            (1): ConditionalGeneratorBlock(
              (rc_bn0): ConditionalBatchNorm(
                512, class_embedding_size=256, momentum=0.1, affine=True, track_running_stats=True
                (class_to_weight_transform): Linear(in_features=256, out_features=512, bias=True)
                (class_to_bias_transform): Linear(in_features=256, out_features=512, bias=True)
              )
              (rc_act0): ReLU(inplace=True)
              (rc_cv0): Conv1d(512, 128, kernel_size=(1,), stride=(1,))
              (rc_bn1): ConditionalBatchNorm(
                128, class_embedding_size=256, momentum=0.1, affine=True, track_running_stats=True
                (class_to_weight_transform): Linear(in_features=256, out_features=128, bias=True)
                (class_to_bias_transform): Linear(in_features=256, out_features=128, bias=True)
              )
              (rc_act1): ReLU(inplace=True)
              (rc_cv1): Conv1d(128, 128, kernel_size=(3,), stride=(1,), padding=(1,))
              (rc_bn2): ConditionalBatchNorm(
                128, class_embedding_size=256, momentum=0.1, affine=True, track_running_stats=True
                (class_to_weight_transform): Linear(in_features=256, out_features=128, bias=True)
                (class_to_bias_transform): Linear(in_features=256, out_features=128, bias=True)
              )
              (rc_act2): ReLU(inplace=True)
              (rc_cv2): Conv1d(128, 512, kernel_size=(1,), stride=(1,))
              (sc): Sequential()
            )
            (2): ConditionalGeneratorBlock(
              (rc_bn0): ConditionalBatchNorm(
                512, class_embedding_size=256, momentum=0.1, affine=True, track_running_stats=True
                (class_to_weight_transform): Linear(in_features=256, out_features=512, bias=True)
                (class_to_bias_transform): Linear(in_features=256, out_features=512, bias=True)
              )
              (rc_act0): ReLU(inplace=True)
              (rc_cv0): Conv1d(512, 128, kernel_size=(1,), stride=(1,))
              (rc_bn1): ConditionalBatchNorm(
                128, class_embedding_size=256, momentum=0.1, affine=True, track_running_stats=True
                (class_to_weight_transform): Linear(in_features=256, out_features=128, bias=True)
                (class_to_bias_transform): Linear(in_features=256, out_features=128, bias=True)
              )
              (rc_act1): ReLU(inplace=True)
              (rc_cv1): Conv1d(128, 128, kernel_size=(3,), stride=(1,), padding=(1,))
              (rc_bn2): ConditionalBatchNorm(
                128, class_embedding_size=256, momentum=0.1, affine=True, track_running_stats=True
                (class_to_weight_transform): Linear(in_features=256, out_features=128, bias=True)
                (class_to_bias_transform): Linear(in_features=256, out_features=128, bias=True)
              )
              (rc_act2): ReLU(inplace=True)
              (rc_cv2): Conv1d(128, 512, kernel_size=(1,), stride=(1,))
              (sc): Sequential()
            )
          )
          (rp_o): ConditionalGeneratorBlock(
            (rc_bn0): ConditionalBatchNorm(
              512, class_embedding_size=256, momentum=0.1, affine=True, track_running_stats=True
              (class_to_weight_transform): Linear(in_features=256, out_features=512, bias=True)
              (class_to_bias_transform): Linear(in_features=256, out_features=512, bias=True)
            )
            (rc_act0): ReLU(inplace=True)
            (rc_cv0): Conv1d(512, 64, kernel_size=(1,), stride=(1,))
            (rc_bn1): ConditionalBatchNorm(
              64, class_embedding_size=256, momentum=0.1, affine=True, track_running_stats=True
              (class_to_weight_transform): Linear(in_features=256, out_features=64, bias=True)
              (class_to_bias_transform): Linear(in_features=256, out_features=64, bias=True)
            )
            (rc_act1): ReLU(inplace=True)
            (rc_cv1): ConvTranspose1d(64, 64, kernel_size=(3,), stride=(2,), padding=(1,))
            (rc_bn2): ConditionalBatchNorm(
              64, class_embedding_size=256, momentum=0.1, affine=True, track_running_stats=True
              (class_to_weight_transform): Linear(in_features=256, out_features=64, bias=True)
              (class_to_bias_transform): Linear(in_features=256, out_features=64, bias=True)
            )
            (rc_act2): ReLU(inplace=True)
            (rc_cv2): Conv1d(64, 256, kernel_size=(1,), stride=(1,))
            (sc): ConvTranspose1d(512, 256, kernel_size=(2,), stride=(2,))
          )
          (sp): ModuleList(
            (0): ConditionalGeneratorBlock(
              (rc_bn0): ConditionalBatchNorm(
                256, class_embedding_size=256, momentum=0.1, affine=True, track_running_stats=True
                (class_to_weight_transform): Linear(in_features=256, out_features=256, bias=True)
                (class_to_bias_transform): Linear(in_features=256, out_features=256, bias=True)
              )
              (rc_act0): ReLU(inplace=True)
              (rc_cv0): Conv1d(256, 64, kernel_size=(1,), stride=(1,))
              (rc_bn1): ConditionalBatchNorm(
                64, class_embedding_size=256, momentum=0.1, affine=True, track_running_stats=True
                (class_to_weight_transform): Linear(in_features=256, out_features=64, bias=True)
                (class_to_bias_transform): Linear(in_features=256, out_features=64, bias=True)
              )
              (rc_act1): ReLU(inplace=True)
              (rc_cv1): Conv1d(64, 64, kernel_size=(3,), stride=(1,), padding=(1,))
              (rc_bn2): ConditionalBatchNorm(
                64, class_embedding_size=256, momentum=0.1, affine=True, track_running_stats=True
                (class_to_weight_transform): Linear(in_features=256, out_features=64, bias=True)
                (class_to_bias_transform): Linear(in_features=256, out_features=64, bias=True)
              )
              (rc_act2): ReLU(inplace=True)
              (rc_cv2): Conv1d(64, 256, kernel_size=(1,), stride=(1,))
              (sc): Sequential()
            )
            (1): ConditionalGeneratorBlock(
              (rc_bn0): ConditionalBatchNorm(
                256, class_embedding_size=256, momentum=0.1, affine=True, track_running_stats=True
                (class_to_weight_transform): Linear(in_features=256, out_features=256, bias=True)
                (class_to_bias_transform): Linear(in_features=256, out_features=256, bias=True)
              )
              (rc_act0): ReLU(inplace=True)
              (rc_cv0): Conv1d(256, 64, kernel_size=(1,), stride=(1,))
              (rc_bn1): ConditionalBatchNorm(
                64, class_embedding_size=256, momentum=0.1, affine=True, track_running_stats=True
                (class_to_weight_transform): Linear(in_features=256, out_features=64, bias=True)
                (class_to_bias_transform): Linear(in_features=256, out_features=64, bias=True)
              )
              (rc_act1): ReLU(inplace=True)
              (rc_cv1): Conv1d(64, 64, kernel_size=(3,), stride=(1,), padding=(1,))
              (rc_bn2): ConditionalBatchNorm(
                64, class_embedding_size=256, momentum=0.1, affine=True, track_running_stats=True
                (class_to_weight_transform): Linear(in_features=256, out_features=64, bias=True)
                (class_to_bias_transform): Linear(in_features=256, out_features=64, bias=True)
              )
              (rc_act2): ReLU(inplace=True)
              (rc_cv2): Conv1d(64, 256, kernel_size=(1,), stride=(1,))
              (sc): Sequential()
            )
            (2): ConditionalGeneratorBlock(
              (rc_bn0): ConditionalBatchNorm(
                256, class_embedding_size=256, momentum=0.1, affine=True, track_running_stats=True
                (class_to_weight_transform): Linear(in_features=256, out_features=256, bias=True)
                (class_to_bias_transform): Linear(in_features=256, out_features=256, bias=True)
              )
              (rc_act0): ReLU(inplace=True)
              (rc_cv0): Conv1d(256, 64, kernel_size=(1,), stride=(1,))
              (rc_bn1): ConditionalBatchNorm(
                64, class_embedding_size=256, momentum=0.1, affine=True, track_running_stats=True
                (class_to_weight_transform): Linear(in_features=256, out_features=64, bias=True)
                (class_to_bias_transform): Linear(in_features=256, out_features=64, bias=True)
              )
              (rc_act1): ReLU(inplace=True)
              (rc_cv1): Conv1d(64, 64, kernel_size=(3,), stride=(1,), padding=(1,))
              (rc_bn2): ConditionalBatchNorm(
                64, class_embedding_size=256, momentum=0.1, affine=True, track_running_stats=True
                (class_to_weight_transform): Linear(in_features=256, out_features=64, bias=True)
                (class_to_bias_transform): Linear(in_features=256, out_features=64, bias=True)
              )
              (rc_act2): ReLU(inplace=True)
              (rc_cv2): Conv1d(64, 256, kernel_size=(1,), stride=(1,))
              (sc): Sequential()
            )
          )
        )
        (rp_o): ConditionalGeneratorBlock(
          (rc_bn0): ConditionalBatchNorm(
            512, class_embedding_size=256, momentum=0.1, affine=True, track_running_stats=True
            (class_to_weight_transform): Linear(in_features=256, out_features=512, bias=True)
            (class_to_bias_transform): Linear(in_features=256, out_features=512, bias=True)
          )
          (rc_act0): ReLU(inplace=True)
          (rc_cv0): Conv1d(512, 32, kernel_size=(1,), stride=(1,))
          (rc_bn1): ConditionalBatchNorm(
            32, class_embedding_size=256, momentum=0.1, affine=True, track_running_stats=True
            (class_to_weight_transform): Linear(in_features=256, out_features=32, bias=True)
            (class_to_bias_transform): Linear(in_features=256, out_features=32, bias=True)
          )
          (rc_act1): ReLU(inplace=True)
          (rc_cv1): ConvTranspose1d(32, 32, kernel_size=(3,), stride=(2,), padding=(1,))
          (rc_bn2): ConditionalBatchNorm(
            32, class_embedding_size=256, momentum=0.1, affine=True, track_running_stats=True
            (class_to_weight_transform): Linear(in_features=256, out_features=32, bias=True)
            (class_to_bias_transform): Linear(in_features=256, out_features=32, bias=True)
          )
          (rc_act2): ReLU(inplace=True)
          (rc_cv2): Conv1d(32, 128, kernel_size=(1,), stride=(1,))
          (sc): ConvTranspose1d(512, 128, kernel_size=(2,), stride=(2,))
        )
        (sp): ModuleList(
          (0): ConditionalGeneratorBlock(
            (rc_bn0): ConditionalBatchNorm(
              128, class_embedding_size=256, momentum=0.1, affine=True, track_running_stats=True
              (class_to_weight_transform): Linear(in_features=256, out_features=128, bias=True)
              (class_to_bias_transform): Linear(in_features=256, out_features=128, bias=True)
            )
            (rc_act0): ReLU(inplace=True)
            (rc_cv0): Conv1d(128, 32, kernel_size=(1,), stride=(1,))
            (rc_bn1): ConditionalBatchNorm(
              32, class_embedding_size=256, momentum=0.1, affine=True, track_running_stats=True
              (class_to_weight_transform): Linear(in_features=256, out_features=32, bias=True)
              (class_to_bias_transform): Linear(in_features=256, out_features=32, bias=True)
            )
            (rc_act1): ReLU(inplace=True)
            (rc_cv1): Conv1d(32, 32, kernel_size=(3,), stride=(1,), padding=(1,))
            (rc_bn2): ConditionalBatchNorm(
              32, class_embedding_size=256, momentum=0.1, affine=True, track_running_stats=True
              (class_to_weight_transform): Linear(in_features=256, out_features=32, bias=True)
              (class_to_bias_transform): Linear(in_features=256, out_features=32, bias=True)
            )
            (rc_act2): ReLU(inplace=True)
            (rc_cv2): Conv1d(32, 128, kernel_size=(1,), stride=(1,))
            (sc): Sequential()
          )
          (1): ConditionalGeneratorBlock(
            (rc_bn0): ConditionalBatchNorm(
              128, class_embedding_size=256, momentum=0.1, affine=True, track_running_stats=True
              (class_to_weight_transform): Linear(in_features=256, out_features=128, bias=True)
              (class_to_bias_transform): Linear(in_features=256, out_features=128, bias=True)
            )
            (rc_act0): ReLU(inplace=True)
            (rc_cv0): Conv1d(128, 32, kernel_size=(1,), stride=(1,))
            (rc_bn1): ConditionalBatchNorm(
              32, class_embedding_size=256, momentum=0.1, affine=True, track_running_stats=True
              (class_to_weight_transform): Linear(in_features=256, out_features=32, bias=True)
              (class_to_bias_transform): Linear(in_features=256, out_features=32, bias=True)
            )
            (rc_act1): ReLU(inplace=True)
            (rc_cv1): Conv1d(32, 32, kernel_size=(3,), stride=(1,), padding=(1,))
            (rc_bn2): ConditionalBatchNorm(
              32, class_embedding_size=256, momentum=0.1, affine=True, track_running_stats=True
              (class_to_weight_transform): Linear(in_features=256, out_features=32, bias=True)
              (class_to_bias_transform): Linear(in_features=256, out_features=32, bias=True)
            )
            (rc_act2): ReLU(inplace=True)
            (rc_cv2): Conv1d(32, 128, kernel_size=(1,), stride=(1,))
            (sc): Sequential()
          )
          (2): ConditionalGeneratorBlock(
            (rc_bn0): ConditionalBatchNorm(
              128, class_embedding_size=256, momentum=0.1, affine=True, track_running_stats=True
              (class_to_weight_transform): Linear(in_features=256, out_features=128, bias=True)
              (class_to_bias_transform): Linear(in_features=256, out_features=128, bias=True)
            )
            (rc_act0): ReLU(inplace=True)
            (rc_cv0): Conv1d(128, 32, kernel_size=(1,), stride=(1,))
            (rc_bn1): ConditionalBatchNorm(
              32, class_embedding_size=256, momentum=0.1, affine=True, track_running_stats=True
              (class_to_weight_transform): Linear(in_features=256, out_features=32, bias=True)
              (class_to_bias_transform): Linear(in_features=256, out_features=32, bias=True)
            )
            (rc_act1): ReLU(inplace=True)
            (rc_cv1): Conv1d(32, 32, kernel_size=(3,), stride=(1,), padding=(1,))
            (rc_bn2): ConditionalBatchNorm(
              32, class_embedding_size=256, momentum=0.1, affine=True, track_running_stats=True
              (class_to_weight_transform): Linear(in_features=256, out_features=32, bias=True)
              (class_to_bias_transform): Linear(in_features=256, out_features=32, bias=True)
            )
            (rc_act2): ReLU(inplace=True)
            (rc_cv2): Conv1d(32, 128, kernel_size=(1,), stride=(1,))
            (sc): Sequential()
          )
        )
      )
      (rp_o): ConditionalGeneratorBlock(
        (rc_bn0): ConditionalBatchNorm(
          256, class_embedding_size=256, momentum=0.1, affine=True, track_running_stats=True
          (class_to_weight_transform): Linear(in_features=256, out_features=256, bias=True)
          (class_to_bias_transform): Linear(in_features=256, out_features=256, bias=True)
        )
        (rc_act0): ReLU(inplace=True)
        (rc_cv0): Conv1d(256, 16, kernel_size=(1,), stride=(1,))
        (rc_bn1): ConditionalBatchNorm(
          16, class_embedding_size=256, momentum=0.1, affine=True, track_running_stats=True
          (class_to_weight_transform): Linear(in_features=256, out_features=16, bias=True)
          (class_to_bias_transform): Linear(in_features=256, out_features=16, bias=True)
        )
        (rc_act1): ReLU(inplace=True)
        (rc_cv1): ConvTranspose1d(16, 16, kernel_size=(3,), stride=(2,), padding=(1,))
        (rc_bn2): ConditionalBatchNorm(
          16, class_embedding_size=256, momentum=0.1, affine=True, track_running_stats=True
          (class_to_weight_transform): Linear(in_features=256, out_features=16, bias=True)
          (class_to_bias_transform): Linear(in_features=256, out_features=16, bias=True)
        )
        (rc_act2): ReLU(inplace=True)
        (rc_cv2): Conv1d(16, 64, kernel_size=(1,), stride=(1,))
        (sc): ConvTranspose1d(256, 64, kernel_size=(2,), stride=(2,))
      )
      (sp): ModuleList(
        (0): ConditionalGeneratorBlock(
          (rc_bn0): ConditionalBatchNorm(
            64, class_embedding_size=256, momentum=0.1, affine=True, track_running_stats=True
            (class_to_weight_transform): Linear(in_features=256, out_features=64, bias=True)
            (class_to_bias_transform): Linear(in_features=256, out_features=64, bias=True)
          )
          (rc_act0): ReLU(inplace=True)
          (rc_cv0): Conv1d(64, 16, kernel_size=(1,), stride=(1,))
          (rc_bn1): ConditionalBatchNorm(
            16, class_embedding_size=256, momentum=0.1, affine=True, track_running_stats=True
            (class_to_weight_transform): Linear(in_features=256, out_features=16, bias=True)
            (class_to_bias_transform): Linear(in_features=256, out_features=16, bias=True)
          )
          (rc_act1): ReLU(inplace=True)
          (rc_cv1): Conv1d(16, 16, kernel_size=(3,), stride=(1,), padding=(1,))
          (rc_bn2): ConditionalBatchNorm(
            16, class_embedding_size=256, momentum=0.1, affine=True, track_running_stats=True
            (class_to_weight_transform): Linear(in_features=256, out_features=16, bias=True)
            (class_to_bias_transform): Linear(in_features=256, out_features=16, bias=True)
          )
          (rc_act2): ReLU(inplace=True)
          (rc_cv2): Conv1d(16, 64, kernel_size=(1,), stride=(1,))
          (sc): Sequential()
        )
        (1): ConditionalGeneratorBlock(
          (rc_bn0): ConditionalBatchNorm(
            64, class_embedding_size=256, momentum=0.1, affine=True, track_running_stats=True
            (class_to_weight_transform): Linear(in_features=256, out_features=64, bias=True)
            (class_to_bias_transform): Linear(in_features=256, out_features=64, bias=True)
          )
          (rc_act0): ReLU(inplace=True)
          (rc_cv0): Conv1d(64, 16, kernel_size=(1,), stride=(1,))
          (rc_bn1): ConditionalBatchNorm(
            16, class_embedding_size=256, momentum=0.1, affine=True, track_running_stats=True
            (class_to_weight_transform): Linear(in_features=256, out_features=16, bias=True)
            (class_to_bias_transform): Linear(in_features=256, out_features=16, bias=True)
          )
          (rc_act1): ReLU(inplace=True)
          (rc_cv1): Conv1d(16, 16, kernel_size=(3,), stride=(1,), padding=(1,))
          (rc_bn2): ConditionalBatchNorm(
            16, class_embedding_size=256, momentum=0.1, affine=True, track_running_stats=True
            (class_to_weight_transform): Linear(in_features=256, out_features=16, bias=True)
            (class_to_bias_transform): Linear(in_features=256, out_features=16, bias=True)
          )
          (rc_act2): ReLU(inplace=True)
          (rc_cv2): Conv1d(16, 64, kernel_size=(1,), stride=(1,))
          (sc): Sequential()
        )
        (2): ConditionalGeneratorBlock(
          (rc_bn0): ConditionalBatchNorm(
            64, class_embedding_size=256, momentum=0.1, affine=True, track_running_stats=True
            (class_to_weight_transform): Linear(in_features=256, out_features=64, bias=True)
            (class_to_bias_transform): Linear(in_features=256, out_features=64, bias=True)
          )
          (rc_act0): ReLU(inplace=True)
          (rc_cv0): Conv1d(64, 16, kernel_size=(1,), stride=(1,))
          (rc_bn1): ConditionalBatchNorm(
            16, class_embedding_size=256, momentum=0.1, affine=True, track_running_stats=True
            (class_to_weight_transform): Linear(in_features=256, out_features=16, bias=True)
            (class_to_bias_transform): Linear(in_features=256, out_features=16, bias=True)
          )
          (rc_act1): ReLU(inplace=True)
          (rc_cv1): Conv1d(16, 16, kernel_size=(3,), stride=(1,), padding=(1,))
          (rc_bn2): ConditionalBatchNorm(
            16, class_embedding_size=256, momentum=0.1, affine=True, track_running_stats=True
            (class_to_weight_transform): Linear(in_features=256, out_features=16, bias=True)
            (class_to_bias_transform): Linear(in_features=256, out_features=16, bias=True)
          )
          (rc_act2): ReLU(inplace=True)
          (rc_cv2): Conv1d(16, 64, kernel_size=(1,), stride=(1,))
          (sc): Sequential()
        )
      )
    )
    (rp_o): ConditionalGeneratorBlock(
      (rc_bn0): ConditionalBatchNorm(
        128, class_embedding_size=256, momentum=0.1, affine=True, track_running_stats=True
        (class_to_weight_transform): Linear(in_features=256, out_features=128, bias=True)
        (class_to_bias_transform): Linear(in_features=256, out_features=128, bias=True)
      )
      (rc_act0): ReLU(inplace=True)
      (rc_cv0): Conv1d(128, 8, kernel_size=(1,), stride=(1,))
      (rc_bn1): ConditionalBatchNorm(
        8, class_embedding_size=256, momentum=0.1, affine=True, track_running_stats=True
        (class_to_weight_transform): Linear(in_features=256, out_features=8, bias=True)
        (class_to_bias_transform): Linear(in_features=256, out_features=8, bias=True)
      )
      (rc_act1): ReLU(inplace=True)
      (rc_cv1): ConvTranspose1d(8, 8, kernel_size=(3,), stride=(2,), padding=(1,))
      (rc_bn2): ConditionalBatchNorm(
        8, class_embedding_size=256, momentum=0.1, affine=True, track_running_stats=True
        (class_to_weight_transform): Linear(in_features=256, out_features=8, bias=True)
        (class_to_bias_transform): Linear(in_features=256, out_features=8, bias=True)
      )
      (rc_act2): ReLU(inplace=True)
      (rc_cv2): Conv1d(8, 32, kernel_size=(1,), stride=(1,))
      (sc): ConvTranspose1d(128, 32, kernel_size=(2,), stride=(2,))
    )
    (sp): ModuleList(
      (0): ConditionalGeneratorBlock(
        (rc_bn0): ConditionalBatchNorm(
          32, class_embedding_size=256, momentum=0.1, affine=True, track_running_stats=True
          (class_to_weight_transform): Linear(in_features=256, out_features=32, bias=True)
          (class_to_bias_transform): Linear(in_features=256, out_features=32, bias=True)
        )
        (rc_act0): ReLU(inplace=True)
        (rc_cv0): Conv1d(32, 8, kernel_size=(1,), stride=(1,))
        (rc_bn1): ConditionalBatchNorm(
          8, class_embedding_size=256, momentum=0.1, affine=True, track_running_stats=True
          (class_to_weight_transform): Linear(in_features=256, out_features=8, bias=True)
          (class_to_bias_transform): Linear(in_features=256, out_features=8, bias=True)
        )
        (rc_act1): ReLU(inplace=True)
        (rc_cv1): Conv1d(8, 8, kernel_size=(3,), stride=(1,), padding=(1,))
        (rc_bn2): ConditionalBatchNorm(
          8, class_embedding_size=256, momentum=0.1, affine=True, track_running_stats=True
          (class_to_weight_transform): Linear(in_features=256, out_features=8, bias=True)
          (class_to_bias_transform): Linear(in_features=256, out_features=8, bias=True)
        )
        (rc_act2): ReLU(inplace=True)
        (rc_cv2): Conv1d(8, 32, kernel_size=(1,), stride=(1,))
        (sc): Sequential()
      )
      (1): ConditionalGeneratorBlock(
        (rc_bn0): ConditionalBatchNorm(
          32, class_embedding_size=256, momentum=0.1, affine=True, track_running_stats=True
          (class_to_weight_transform): Linear(in_features=256, out_features=32, bias=True)
          (class_to_bias_transform): Linear(in_features=256, out_features=32, bias=True)
        )
        (rc_act0): ReLU(inplace=True)
        (rc_cv0): Conv1d(32, 8, kernel_size=(1,), stride=(1,))
        (rc_bn1): ConditionalBatchNorm(
          8, class_embedding_size=256, momentum=0.1, affine=True, track_running_stats=True
          (class_to_weight_transform): Linear(in_features=256, out_features=8, bias=True)
          (class_to_bias_transform): Linear(in_features=256, out_features=8, bias=True)
        )
        (rc_act1): ReLU(inplace=True)
        (rc_cv1): Conv1d(8, 8, kernel_size=(3,), stride=(1,), padding=(1,))
        (rc_bn2): ConditionalBatchNorm(
          8, class_embedding_size=256, momentum=0.1, affine=True, track_running_stats=True
          (class_to_weight_transform): Linear(in_features=256, out_features=8, bias=True)
          (class_to_bias_transform): Linear(in_features=256, out_features=8, bias=True)
        )
        (rc_act2): ReLU(inplace=True)
        (rc_cv2): Conv1d(8, 32, kernel_size=(1,), stride=(1,))
        (sc): Sequential()
      )
      (2): ConditionalGeneratorBlock(
        (rc_bn0): ConditionalBatchNorm(
          32, class_embedding_size=256, momentum=0.1, affine=True, track_running_stats=True
          (class_to_weight_transform): Linear(in_features=256, out_features=32, bias=True)
          (class_to_bias_transform): Linear(in_features=256, out_features=32, bias=True)
        )
        (rc_act0): ReLU(inplace=True)
        (rc_cv0): Conv1d(32, 8, kernel_size=(1,), stride=(1,))
        (rc_bn1): ConditionalBatchNorm(
          8, class_embedding_size=256, momentum=0.1, affine=True, track_running_stats=True
          (class_to_weight_transform): Linear(in_features=256, out_features=8, bias=True)
          (class_to_bias_transform): Linear(in_features=256, out_features=8, bias=True)
        )
        (rc_act1): ReLU(inplace=True)
        (rc_cv1): Conv1d(8, 8, kernel_size=(3,), stride=(1,), padding=(1,))
        (rc_bn2): ConditionalBatchNorm(
          8, class_embedding_size=256, momentum=0.1, affine=True, track_running_stats=True
          (class_to_weight_transform): Linear(in_features=256, out_features=8, bias=True)
          (class_to_bias_transform): Linear(in_features=256, out_features=8, bias=True)
        )
        (rc_act2): ReLU(inplace=True)
        (rc_cv2): Conv1d(8, 32, kernel_size=(1,), stride=(1,))
        (sc): Sequential()
      )
    )
  )
  (reconstructor): ModuleList(
    (0): ConditionalGeneratorBlock(
      (rc_bn0): ConditionalBatchNorm(
        64, class_embedding_size=256, momentum=0.1, affine=True, track_running_stats=True
        (class_to_weight_transform): Linear(in_features=256, out_features=64, bias=True)
        (class_to_bias_transform): Linear(in_features=256, out_features=64, bias=True)
      )
      (rc_act0): ReLU(inplace=True)
      (rc_cv0): Conv1d(64, 8, kernel_size=(1,), stride=(1,))
      (rc_bn1): ConditionalBatchNorm(
        8, class_embedding_size=256, momentum=0.1, affine=True, track_running_stats=True
        (class_to_weight_transform): Linear(in_features=256, out_features=8, bias=True)
        (class_to_bias_transform): Linear(in_features=256, out_features=8, bias=True)
      )
      (rc_act1): ReLU(inplace=True)
      (rc_cv1): Conv1d(8, 8, kernel_size=(3,), stride=(1,), padding=(1,))
      (rc_bn2): ConditionalBatchNorm(
        8, class_embedding_size=256, momentum=0.1, affine=True, track_running_stats=True
        (class_to_weight_transform): Linear(in_features=256, out_features=8, bias=True)
        (class_to_bias_transform): Linear(in_features=256, out_features=8, bias=True)
      )
      (rc_act2): ReLU(inplace=True)
      (rc_cv2): Conv1d(8, 32, kernel_size=(1,), stride=(1,))
      (sc): Conv1d(64, 32, kernel_size=(1,), stride=(1,))
    )
    (1): ConditionalGeneratorBlock(
      (rc_bn0): ConditionalBatchNorm(
        32, class_embedding_size=256, momentum=0.1, affine=True, track_running_stats=True
        (class_to_weight_transform): Linear(in_features=256, out_features=32, bias=True)
        (class_to_bias_transform): Linear(in_features=256, out_features=32, bias=True)
      )
      (rc_act0): ReLU(inplace=True)
      (rc_cv0): Conv1d(32, 8, kernel_size=(1,), stride=(1,))
      (rc_bn1): ConditionalBatchNorm(
        8, class_embedding_size=256, momentum=0.1, affine=True, track_running_stats=True
        (class_to_weight_transform): Linear(in_features=256, out_features=8, bias=True)
        (class_to_bias_transform): Linear(in_features=256, out_features=8, bias=True)
      )
      (rc_act1): ReLU(inplace=True)
      (rc_cv1): Conv1d(8, 8, kernel_size=(3,), stride=(1,), padding=(1,))
      (rc_bn2): ConditionalBatchNorm(
        8, class_embedding_size=256, momentum=0.1, affine=True, track_running_stats=True
        (class_to_weight_transform): Linear(in_features=256, out_features=8, bias=True)
        (class_to_bias_transform): Linear(in_features=256, out_features=8, bias=True)
      )
      (rc_act2): ReLU(inplace=True)
      (rc_cv2): Conv1d(8, 32, kernel_size=(1,), stride=(1,))
      (sc): Sequential()
    )
    (2): ConditionalGeneratorBlock(
      (rc_bn0): ConditionalBatchNorm(
        32, class_embedding_size=256, momentum=0.1, affine=True, track_running_stats=True
        (class_to_weight_transform): Linear(in_features=256, out_features=32, bias=True)
        (class_to_bias_transform): Linear(in_features=256, out_features=32, bias=True)
      )
      (rc_act0): ReLU(inplace=True)
      (rc_cv0): Conv1d(32, 8, kernel_size=(1,), stride=(1,))
      (rc_bn1): ConditionalBatchNorm(
        8, class_embedding_size=256, momentum=0.1, affine=True, track_running_stats=True
        (class_to_weight_transform): Linear(in_features=256, out_features=8, bias=True)
        (class_to_bias_transform): Linear(in_features=256, out_features=8, bias=True)
      )
      (rc_act1): ReLU(inplace=True)
      (rc_cv1): Conv1d(8, 8, kernel_size=(3,), stride=(1,), padding=(1,))
      (rc_bn2): ConditionalBatchNorm(
        8, class_embedding_size=256, momentum=0.1, affine=True, track_running_stats=True
        (class_to_weight_transform): Linear(in_features=256, out_features=8, bias=True)
        (class_to_bias_transform): Linear(in_features=256, out_features=8, bias=True)
      )
      (rc_act2): ReLU(inplace=True)
      (rc_cv2): Conv1d(8, 32, kernel_size=(1,), stride=(1,))
      (sc): Sequential()
    )
  )
  (output_transform): Conv1d(32, 1, kernel_size=(1,), stride=(1,))
)
LeakageDiscriminator(
  (class_embedding): Linear(in_features=144, out_features=256, bias=True)
  (input_transform): Conv1d(1, 16, kernel_size=(3,), stride=(1,), padding=(1,))
  (feature_extractor): Sequential(
    (0): DiscriminatorBlock(
      (residual_connection): Sequential(
        (0): LeakyReLU(negative_slope=0.1)
        (1): Conv1d(16, 8, kernel_size=(1,), stride=(1,))
        (2): LeakyReLU(negative_slope=0.1)
        (3): Conv1d(8, 8, kernel_size=(3,), stride=(2,), padding=(1,))
        (4): LeakyReLU(negative_slope=0.1)
        (5): Conv1d(8, 32, kernel_size=(1,), stride=(1,))
      )
      (skip_connection): Sequential(
        (0): Conv1d(16, 32, kernel_size=(2,), stride=(2,))
      )
    )
    (1): DiscriminatorBlock(
      (residual_connection): Sequential(
        (0): LeakyReLU(negative_slope=0.1)
        (1): Conv1d(32, 8, kernel_size=(1,), stride=(1,))
        (2): LeakyReLU(negative_slope=0.1)
        (3): Conv1d(8, 8, kernel_size=(3,), stride=(1,), padding=(1,))
        (4): LeakyReLU(negative_slope=0.1)
        (5): Conv1d(8, 32, kernel_size=(1,), stride=(1,))
      )
      (skip_connection): Sequential()
    )
    (2): DiscriminatorBlock(
      (residual_connection): Sequential(
        (0): LeakyReLU(negative_slope=0.1)
        (1): Conv1d(32, 8, kernel_size=(1,), stride=(1,))
        (2): LeakyReLU(negative_slope=0.1)
        (3): Conv1d(8, 8, kernel_size=(3,), stride=(1,), padding=(1,))
        (4): LeakyReLU(negative_slope=0.1)
        (5): Conv1d(8, 32, kernel_size=(1,), stride=(1,))
      )
      (skip_connection): Sequential()
    )
    (3): DiscriminatorBlock(
      (residual_connection): Sequential(
        (0): LeakyReLU(negative_slope=0.1)
        (1): Conv1d(32, 8, kernel_size=(1,), stride=(1,))
        (2): LeakyReLU(negative_slope=0.1)
        (3): Conv1d(8, 8, kernel_size=(3,), stride=(1,), padding=(1,))
        (4): LeakyReLU(negative_slope=0.1)
        (5): Conv1d(8, 32, kernel_size=(1,), stride=(1,))
      )
      (skip_connection): Sequential()
    )
    (4): DiscriminatorBlock(
      (residual_connection): Sequential(
        (0): LeakyReLU(negative_slope=0.1)
        (1): Conv1d(32, 16, kernel_size=(1,), stride=(1,))
        (2): LeakyReLU(negative_slope=0.1)
        (3): Conv1d(16, 16, kernel_size=(3,), stride=(2,), padding=(1,))
        (4): LeakyReLU(negative_slope=0.1)
        (5): Conv1d(16, 64, kernel_size=(1,), stride=(1,))
      )
      (skip_connection): Sequential(
        (0): Conv1d(32, 64, kernel_size=(2,), stride=(2,))
      )
    )
    (5): DiscriminatorBlock(
      (residual_connection): Sequential(
        (0): LeakyReLU(negative_slope=0.1)
        (1): Conv1d(64, 16, kernel_size=(1,), stride=(1,))
        (2): LeakyReLU(negative_slope=0.1)
        (3): Conv1d(16, 16, kernel_size=(3,), stride=(1,), padding=(1,))
        (4): LeakyReLU(negative_slope=0.1)
        (5): Conv1d(16, 64, kernel_size=(1,), stride=(1,))
      )
      (skip_connection): Sequential()
    )
    (6): DiscriminatorBlock(
      (residual_connection): Sequential(
        (0): LeakyReLU(negative_slope=0.1)
        (1): Conv1d(64, 16, kernel_size=(1,), stride=(1,))
        (2): LeakyReLU(negative_slope=0.1)
        (3): Conv1d(16, 16, kernel_size=(3,), stride=(1,), padding=(1,))
        (4): LeakyReLU(negative_slope=0.1)
        (5): Conv1d(16, 64, kernel_size=(1,), stride=(1,))
      )
      (skip_connection): Sequential()
    )
    (7): DiscriminatorBlock(
      (residual_connection): Sequential(
        (0): LeakyReLU(negative_slope=0.1)
        (1): Conv1d(64, 16, kernel_size=(1,), stride=(1,))
        (2): LeakyReLU(negative_slope=0.1)
        (3): Conv1d(16, 16, kernel_size=(3,), stride=(1,), padding=(1,))
        (4): LeakyReLU(negative_slope=0.1)
        (5): Conv1d(16, 64, kernel_size=(1,), stride=(1,))
      )
      (skip_connection): Sequential()
    )
    (8): DiscriminatorBlock(
      (residual_connection): Sequential(
        (0): LeakyReLU(negative_slope=0.1)
        (1): Conv1d(64, 32, kernel_size=(1,), stride=(1,))
        (2): LeakyReLU(negative_slope=0.1)
        (3): Conv1d(32, 32, kernel_size=(3,), stride=(2,), padding=(1,))
        (4): LeakyReLU(negative_slope=0.1)
        (5): Conv1d(32, 128, kernel_size=(1,), stride=(1,))
      )
      (skip_connection): Sequential(
        (0): Conv1d(64, 128, kernel_size=(2,), stride=(2,))
      )
    )
    (9): DiscriminatorBlock(
      (residual_connection): Sequential(
        (0): LeakyReLU(negative_slope=0.1)
        (1): Conv1d(128, 32, kernel_size=(1,), stride=(1,))
        (2): LeakyReLU(negative_slope=0.1)
        (3): Conv1d(32, 32, kernel_size=(3,), stride=(1,), padding=(1,))
        (4): LeakyReLU(negative_slope=0.1)
        (5): Conv1d(32, 128, kernel_size=(1,), stride=(1,))
      )
      (skip_connection): Sequential()
    )
    (10): DiscriminatorBlock(
      (residual_connection): Sequential(
        (0): LeakyReLU(negative_slope=0.1)
        (1): Conv1d(128, 32, kernel_size=(1,), stride=(1,))
        (2): LeakyReLU(negative_slope=0.1)
        (3): Conv1d(32, 32, kernel_size=(3,), stride=(1,), padding=(1,))
        (4): LeakyReLU(negative_slope=0.1)
        (5): Conv1d(32, 128, kernel_size=(1,), stride=(1,))
      )
      (skip_connection): Sequential()
    )
    (11): DiscriminatorBlock(
      (residual_connection): Sequential(
        (0): LeakyReLU(negative_slope=0.1)
        (1): Conv1d(128, 32, kernel_size=(1,), stride=(1,))
        (2): LeakyReLU(negative_slope=0.1)
        (3): Conv1d(32, 32, kernel_size=(3,), stride=(1,), padding=(1,))
        (4): LeakyReLU(negative_slope=0.1)
        (5): Conv1d(32, 128, kernel_size=(1,), stride=(1,))
      )
      (skip_connection): Sequential()
    )
    (12): DiscriminatorBlock(
      (residual_connection): Sequential(
        (0): LeakyReLU(negative_slope=0.1)
        (1): Conv1d(128, 64, kernel_size=(1,), stride=(1,))
        (2): LeakyReLU(negative_slope=0.1)
        (3): Conv1d(64, 64, kernel_size=(3,), stride=(2,), padding=(1,))
        (4): LeakyReLU(negative_slope=0.1)
        (5): Conv1d(64, 256, kernel_size=(1,), stride=(1,))
      )
      (skip_connection): Sequential(
        (0): Conv1d(128, 256, kernel_size=(2,), stride=(2,))
      )
    )
    (13): DiscriminatorBlock(
      (residual_connection): Sequential(
        (0): LeakyReLU(negative_slope=0.1)
        (1): Conv1d(256, 64, kernel_size=(1,), stride=(1,))
        (2): LeakyReLU(negative_slope=0.1)
        (3): Conv1d(64, 64, kernel_size=(3,), stride=(1,), padding=(1,))
        (4): LeakyReLU(negative_slope=0.1)
        (5): Conv1d(64, 256, kernel_size=(1,), stride=(1,))
      )
      (skip_connection): Sequential()
    )
    (14): DiscriminatorBlock(
      (residual_connection): Sequential(
        (0): LeakyReLU(negative_slope=0.1)
        (1): Conv1d(256, 64, kernel_size=(1,), stride=(1,))
        (2): LeakyReLU(negative_slope=0.1)
        (3): Conv1d(64, 64, kernel_size=(3,), stride=(1,), padding=(1,))
        (4): LeakyReLU(negative_slope=0.1)
        (5): Conv1d(64, 256, kernel_size=(1,), stride=(1,))
      )
      (skip_connection): Sequential()
    )
    (15): DiscriminatorBlock(
      (residual_connection): Sequential(
        (0): LeakyReLU(negative_slope=0.1)
        (1): Conv1d(256, 64, kernel_size=(1,), stride=(1,))
        (2): LeakyReLU(negative_slope=0.1)
        (3): Conv1d(64, 64, kernel_size=(3,), stride=(1,), padding=(1,))
        (4): LeakyReLU(negative_slope=0.1)
        (5): Conv1d(64, 256, kernel_size=(1,), stride=(1,))
      )
      (skip_connection): Sequential()
    )
    (16): GlobalPool1d(sum)
  )
  (shared_head): Sequential(
    (0): Linear(in_features=256, out_features=256, bias=True)
    (1): LeakyReLU(negative_slope=0.1)
  )
  (classifier_heads): ModuleDict(
    (hamming_weight__sub_bytes_in__0): Linear(in_features=256, out_features=9, bias=True)
    (hamming_weight__sub_bytes_in__1): Linear(in_features=256, out_features=9, bias=True)
    (hamming_weight__sub_bytes_in__2): Linear(in_features=256, out_features=9, bias=True)
    (hamming_weight__sub_bytes_in__3): Linear(in_features=256, out_features=9, bias=True)
    (hamming_weight__sub_bytes_in__4): Linear(in_features=256, out_features=9, bias=True)
    (hamming_weight__sub_bytes_in__5): Linear(in_features=256, out_features=9, bias=True)
    (hamming_weight__sub_bytes_in__6): Linear(in_features=256, out_features=9, bias=True)
    (hamming_weight__sub_bytes_in__7): Linear(in_features=256, out_features=9, bias=True)
    (hamming_weight__sub_bytes_in__8): Linear(in_features=256, out_features=9, bias=True)
    (hamming_weight__sub_bytes_in__9): Linear(in_features=256, out_features=9, bias=True)
    (hamming_weight__sub_bytes_in__10): Linear(in_features=256, out_features=9, bias=True)
    (hamming_weight__sub_bytes_in__11): Linear(in_features=256, out_features=9, bias=True)
    (hamming_weight__sub_bytes_in__12): Linear(in_features=256, out_features=9, bias=True)
    (hamming_weight__sub_bytes_in__13): Linear(in_features=256, out_features=9, bias=True)
    (hamming_weight__sub_bytes_in__14): Linear(in_features=256, out_features=9, bias=True)
    (hamming_weight__sub_bytes_in__15): Linear(in_features=256, out_features=9, bias=True)
  )
  (realism_head): Linear(in_features=256, out_features=1, bias=True)
)



Starting epoch 1.
Done with training phase. Results:
	disc_grad_norm: 7.614505268414351
	disc_loss_realism: 1.1630003452301025
	disc_loss_leakage: 2.719691084814258
	disc_loss: 1.9413456916809082
	disc_acc_realism: 0.5092544555664062
	disc_acc_leakage: 0.11205339431762695
	gen_avg_departure_loss: 3.352304697036743
	gen_loss_realism: 0.21157002449035645
…
