…
torch.Size([]), 'sub_bytes_out__8': torch.Size([]), 'sub_bytes_out__9': torch.Size([]), 'sub_bytes_out__10': torch.Size([]), 'sub_bytes_out__11': torch.Size([]), 'sub_bytes_out__12': torch.Size([]), 'sub_bytes_out__13': torch.Size([]), 'sub_bytes_out__14': torch.Size([]), 'sub_bytes_out__15': torch.Size([])}
	Number of shards: 256
	Samples per shard: 256
	Transform: None
	Bytes: [0, 1, 2, 3, 4, 5, 6, 7, 8, 9, 10, 11, 12, 13, 14, 15]
	Attack points: ['sub_bytes_in', 'sub_bytes_out']
	Interval to use: [0, 20000]
	Downsampling ratio: 4
	Whiten traces: True



Model:
Classifier(
  (input_transform): Conv1d(1, 16, kernel_size=(3,), stride=(1,), padding=(1,), bias=False)
  (feature_extractor): Sequential(
    (0): Sequential(
      (0): ResidualBlock(
        (residual_connection): Sequential(
          (0): BatchNorm1d(16, eps=1e-05, momentum=0.1, affine=True, track_running_stats=True)
          (1): ReLU(inplace=True)
          (2): Conv1d(16, 8, kernel_size=(1,), stride=(1,), bias=False)
          (3): BatchNorm1d(8, eps=1e-05, momentum=0.1, affine=True, track_running_stats=True)
          (4): ReLU(inplace=True)
          (5): Conv1d(8, 8, kernel_size=(3,), stride=(1,), padding=(1,), bias=False)
          (6): BatchNorm1d(8, eps=1e-05, momentum=0.1, affine=True, track_running_stats=True)
          (7): ReLU(inplace=True)
          (8): Conv1d(8, 32, kernel_size=(1,), stride=(1,))
        )
        (shortcut_connection): Sequential(
          (0): Conv1d(16, 32, kernel_size=(1,), stride=(1,))
        )
      )
      (1): ResidualBlock(
        (residual_connection): Sequential(
          (0): BatchNorm1d(32, eps=1e-05, momentum=0.1, affine=True, track_running_stats=True)
          (1): ReLU(inplace=True)
          (2): Conv1d(32, 8, kernel_size=(1,), stride=(1,), bias=False)
          (3): BatchNorm1d(8, eps=1e-05, momentum=0.1, affine=True, track_running_stats=True)
          (4): ReLU(inplace=True)
          (5): Conv1d(8, 8, kernel_size=(3,), stride=(1,), padding=(1,), bias=False)
          (6): BatchNorm1d(8, eps=1e-05, momentum=0.1, affine=True, track_running_stats=True)
          (7): ReLU(inplace=True)
          (8): Conv1d(8, 32, kernel_size=(1,), stride=(1,))
        )
        (shortcut_connection): Sequential()
      )
      (2): ResidualBlock(
        (residual_connection): Sequential(
          (0): BatchNorm1d(32, eps=1e-05, momentum=0.1, affine=True, track_running_stats=True)
          (1): ReLU(inplace=True)
          (2): Conv1d(32, 8, kernel_size=(1,), stride=(1,), bias=False)
          (3): BatchNorm1d(8, eps=1e-05, momentum=0.1, affine=True, track_running_stats=True)
          (4): ReLU(inplace=True)
          (5): Conv1d(8, 8, kernel_size=(3,), stride=(2,), padding=(1,), bias=False)
          (6): BatchNorm1d(8, eps=1e-05, momentum=0.1, affine=True, track_running_stats=True)
          (7): ReLU(inplace=True)
          (8): Conv1d(8, 32, kernel_size=(1,), stride=(1,))
        )
        (shortcut_connection): Sequential(
          (0): Conv1d(32, 32, kernel_size=(3,), stride=(2,), padding=(1,))
        )
      )
    )
    (1): Sequential(
      (0): ResidualBlock(
        (residual_connection): Sequential(
          (0): BatchNorm1d(32, eps=1e-05, momentum=0.1, affine=True, track_running_stats=True)
          (1): ReLU(inplace=True)
          (2): Conv1d(32, 16, kernel_size=(1,), stride=(1,), bias=False)
          (3): BatchNorm1d(16, eps=1e-05, momentum=0.1, affine=True, track_running_stats=True)
          (4): ReLU(inplace=True)
          (5): Conv1d(16, 16, kernel_size=(3,), stride=(1,), padding=(1,), bias=False)
          (6): BatchNorm1d(16, eps=1e-05, momentum=0.1, affine=True, track_running_stats=True)
          (7): ReLU(inplace=True)
          (8): Conv1d(16, 64, kernel_size=(1,), stride=(1,))
        )
        (shortcut_connection): Sequential(
          (0): Conv1d(32, 64, kernel_size=(1,), stride=(1,))
        )
      )
      (1): ResidualBlock(
        (residual_connection): Sequential(
          (0): BatchNorm1d(64, eps=1e-05, momentum=0.1, affine=True, track_running_stats=True)
          (1): ReLU(inplace=True)
          (2): Conv1d(64, 16, kernel_size=(1,), stride=(1,), bias=False)
          (3): BatchNorm1d(16, eps=1e-05, momentum=0.1, affine=True, track_running_stats=True)
          (4): ReLU(inplace=True)
          (5): Conv1d(16, 16, kernel_size=(3,), stride=(1,), padding=(1,), bias=False)
          (6): BatchNorm1d(16, eps=1e-05, momentum=0.1, affine=True, track_running_stats=True)
          (7): ReLU(inplace=True)
          (8): Conv1d(16, 64, kernel_size=(1,), stride=(1,))
        )
        (shortcut_connection): Sequential()
      )
      (2): ResidualBlock(
        (residual_connection): Sequential(
          (0): BatchNorm1d(64, eps=1e-05, momentum=0.1, affine=True, track_running_stats=True)
          (1): ReLU(inplace=True)
          (2): Conv1d(64, 16, kernel_size=(1,), stride=(1,), bias=False)
          (3): BatchNorm1d(16, eps=1e-05, momentum=0.1, affine=True, track_running_stats=True)
          (4): ReLU(inplace=True)
          (5): Conv1d(16, 16, kernel_size=(3,), stride=(1,), padding=(1,), bias=False)
          (6): BatchNorm1d(16, eps=1e-05, momentum=0.1, affine=True, track_running_stats=True)
          (7): ReLU(inplace=True)
          (8): Conv1d(16, 64, kernel_size=(1,), stride=(1,))
        )
        (shortcut_connection): Sequential()
      )
      (3): ResidualBlock(
        (residual_connection): Sequential(
          (0): BatchNorm1d(64, eps=1e-05, momentum=0.1, affine=True, track_running_stats=True)
          (1): ReLU(inplace=True)
          (2): Conv1d(64, 16, kernel_size=(1,), stride=(1,), bias=False)
          (3): BatchNorm1d(16, eps=1e-05, momentum=0.1, affine=True, track_running_stats=True)
          (4): ReLU(inplace=True)
          (5): Conv1d(16, 16, kernel_size=(3,), stride=(2,), padding=(1,), bias=False)
          (6): BatchNorm1d(16, eps=1e-05, momentum=0.1, affine=True, track_running_stats=True)
          (7): ReLU(inplace=True)
          (8): Conv1d(16, 64, kernel_size=(1,), stride=(1,))
        )
        (shortcut_connection): Sequential(
          (0): Conv1d(64, 64, kernel_size=(3,), stride=(2,), padding=(1,))
        )
      )
    )
    (2): Sequential(
      (0): ResidualBlock(
        (residual_connection): Sequential(
          (0): BatchNorm1d(64, eps=1e-05, momentum=0.1, affine=True, track_running_stats=True)
          (1): ReLU(inplace=True)
          (2): Conv1d(64, 32, kernel_size=(1,), stride=(1,), bias=False)
          (3): BatchNorm1d(32, eps=1e-05, momentum=0.1, affine=True, track_running_stats=True)
          (4): ReLU(inplace=True)
          (5): Conv1d(32, 32, kernel_size=(3,), stride=(1,), padding=(1,), bias=False)
          (6): BatchNorm1d(32, eps=1e-05, momentum=0.1, affine=True, track_running_stats=True)
          (7): ReLU(inplace=True)
          (8): Conv1d(32, 128, kernel_size=(1,), stride=(1,))
        )
        (shortcut_connection): Sequential(
          (0): Conv1d(64, 128, kernel_size=(1,), stride=(1,))
        )
      )
      (1): ResidualBlock(
        (residual_connection): Sequential(
          (0): BatchNorm1d(128, eps=1e-05, momentum=0.1, affine=True, track_running_stats=True)
          (1): ReLU(inplace=True)
          (2): Conv1d(128, 32, kernel_size=(1,), stride=(1,), bias=False)
          (3): BatchNorm1d(32, eps=1e-05, momentum=0.1, affine=True, track_running_stats=True)
          (4): ReLU(inplace=True)
          (5): Conv1d(32, 32, kernel_size=(3,), stride=(1,), padding=(1,), bias=False)
          (6): BatchNorm1d(32, eps=1e-05, momentum=0.1, affine=True, track_running_stats=True)
          (7): ReLU(inplace=True)
          (8): Conv1d(32, 128, kernel_size=(1,), stride=(1,))
        )
        (shortcut_connection): Sequential()
      )
      (2): ResidualBlock(
        (residual_connection): Sequential(
          (0): BatchNorm1d(128, eps=1e-05, momentum=0.1, affine=True, track_running_stats=True)
          (1): ReLU(inplace=True)
          (2): Conv1d(128, 32, kernel_size=(1,), stride=(1,), bias=False)
          (3): BatchNorm1d(32, eps=1e-05, momentum=0.1, affine=True, track_running_stats=True)
          (4): ReLU(inplace=True)
          (5): Conv1d(32, 32, kernel_size=(3,), stride=(1,), padding=(1,), bias=False)
          (6): BatchNorm1d(32, eps=1e-05, momentum=0.1, affine=True, track_running_stats=True)
          (7): ReLU(inplace=True)
          (8): Conv1d(32, 128, kernel_size=(1,), stride=(1,))
        )
        (shortcut_connection): Sequential()
      )
      (3): ResidualBlock(
        (residual_connection): Sequential(
          (0): BatchNorm1d(128, eps=1e-05, momentum=0.1, affine=True, track_running_stats=True)
          (1): ReLU(inplace=True)
          (2): Conv1d(128, 32, kernel_size=(1,), stride=(1,), bias=False)
          (3): BatchNorm1d(32, eps=1e-05, momentum=0.1, affine=True, track_running_stats=True)
          (4): ReLU(inplace=True)
          (5): Conv1d(32, 32, kernel_size=(3,), stride=(2,), padding=(1,), bias=False)
          (6): BatchNorm1d(32, eps=1e-05, momentum=0.1, affine=True, track_running_stats=True)
          (7): ReLU(inplace=True)
          (8): Conv1d(32, 128, kernel_size=(1,), stride=(1,))
        )
        (shortcut_connection): Sequential(
          (0): Conv1d(128, 128, kernel_size=(3,), stride=(2,), padding=(1,))
        )
      )
    )
    (3): Sequential(
      (0): ResidualBlock(
        (residual_connection): Sequential(
          (0): BatchNorm1d(128, eps=1e-05, momentum=0.1, affine=True, track_running_stats=True)
          (1): ReLU(inplace=True)
          (2): Conv1d(128, 64, kernel_size=(1,), stride=(1,), bias=False)
          (3): BatchNorm1d(64, eps=1e-05, momentum=0.1, affine=True, track_running_stats=True)
          (4): ReLU(inplace=True)
          (5): Conv1d(64, 64, kernel_size=(3,), stride=(1,), padding=(1,), bias=False)
          (6): BatchNorm1d(64, eps=1e-05, momentum=0.1, affine=True, track_running_stats=True)
          (7): ReLU(inplace=True)
          (8): Conv1d(64, 256, kernel_size=(1,), stride=(1,))
        )
        (shortcut_connection): Sequential(
          (0): Conv1d(128, 256, kernel_size=(1,), stride=(1,))
        )
      )
      (1): ResidualBlock(
        (residual_connection): Sequential(
          (0): BatchNorm1d(256, eps=1e-05, momentum=0.1, affine=True, track_running_stats=True)
          (1): ReLU(inplace=True)
          (2): Conv1d(256, 64, kernel_size=(1,), stride=(1,), bias=False)
          (3): BatchNorm1d(64, eps=1e-05, momentum=0.1, affine=True, track_running_stats=True)
          (4): ReLU(inplace=True)
          (5): Conv1d(64, 64, kernel_size=(3,), stride=(1,), padding=(1,), bias=False)
          (6): BatchNorm1d(64, eps=1e-05, momentum=0.1, affine=True, track_running_stats=True)
          (7): ReLU(inplace=True)
          (8): Conv1d(64, 256, kernel_size=(1,), stride=(1,))
        )
        (shortcut_connection): Sequential()
      )
      (2): ResidualBlock(
        (residual_connection): Sequential(
          (0): BatchNorm1d(256, eps=1e-05, momentum=0.1, affine=True, track_running_stats=True)
          (1): ReLU(inplace=True)
          (2): Conv1d(256, 64, kernel_size=(1,), stride=(1,), bias=False)
          (3): BatchNorm1d(64, eps=1e-05, momentum=0.1, affine=True, track_running_stats=True)
          (4): ReLU(inplace=True)
          (5): Conv1d(64, 64, kernel_size=(3,), stride=(2,), padding=(1,), bias=False)
          (6): BatchNorm1d(64, eps=1e-05, momentum=0.1, affine=True, track_running_stats=True)
          (7): ReLU(inplace=True)
          (8): Conv1d(64, 256, kernel_size=(1,), stride=(1,))
        )
        (shortcut_connection): Sequential(
          (0): Conv1d(256, 256, kernel_size=(3,), stride=(2,), padding=(1,))
        )
      )
    )
  )
  (shared_head): Sequential(
    (0): Dropout(p=0.19980810306482896, inplace=False)
    (1): Linear(in_features=256, out_features=256, bias=False)
    (2): BatchNorm1d(256, eps=1e-05, momentum=0.1, affine=True, track_running_stats=True)
    (3): ReLU(inplace=True)
  )
  (heads): ModuleDict(
    (bytes__sub_bytes_in__0): Linear(in_features=256, out_features=256, bias=True)
    (bytes__sub_bytes_in__1): Linear(in_features=256, out_features=256, bias=True)
    (bytes__sub_bytes_in__2): Linear(in_features=256, out_features=256, bias=True)
    (bytes__sub_bytes_in__3): Linear(in_features=256, out_features=256, bias=True)
    (bytes__sub_bytes_in__4): Linear(in_features=256, out_features=256, bias=True)
    (bytes__sub_bytes_in__5): Linear(in_features=256, out_features=256, bias=True)
    (bytes__sub_bytes_in__6): Linear(in_features=256, out_features=256, bias=True)
    (bytes__sub_bytes_in__7): Linear(in_features=256, out_features=256, bias=True)
    (bytes__sub_bytes_in__8): Linear(in_features=256, out_features=256, bias=True)
    (bytes__sub_bytes_in__9): Linear(in_features=256, out_features=256, bias=True)
    (bytes__sub_bytes_in__10): Linear(in_features=256, out_features=256, bias=True)
    (bytes__sub_bytes_in__11): Linear(in_features=256, out_features=256, bias=True)
    (bytes__sub_bytes_in__12): Linear(in_features=256, out_features=256, bias=True)
    (bytes__sub_bytes_in__13): Linear(in_features=256, out_features=256, bias=True)
    (bytes__sub_bytes_in__14): Linear(in_features=256, out_features=256, bias=True)
    (bytes__sub_bytes_in__15): Linear(in_features=256, out_features=256, bias=True)
    (bytes__sub_bytes_out__0): Linear(in_features=256, out_features=256, bias=True)
    (bytes__sub_bytes_out__1): Linear(in_features=256, out_features=256, bias=True)
    (bytes__sub_bytes_out__2): Linear(in_features=256, out_features=256, bias=True)
    (bytes__sub_bytes_out__3): Linear(in_features=256, out_features=256, bias=True)
    (bytes__sub_bytes_out__4): Linear(in_features=256, out_features=256, bias=True)
    (bytes__sub_bytes_out__5): Linear(in_features=256, out_features=256, bias=True)
    (bytes__sub_bytes_out__6): Linear(in_features=256, out_features=256, bias=True)
    (bytes__sub_bytes_out__7): Linear(in_features=256, out_features=256, bias=True)
    (bytes__sub_bytes_out__8): Linear(in_features=256, out_features=256, bias=True)
    (bytes__sub_bytes_out__9): Linear(in_features=256, out_features=256, bias=True)
    (bytes__sub_bytes_out__10): Linear(in_features=256, out_features=256, bias=True)
    (bytes__sub_bytes_out__11): Linear(in_features=256, out_features=256, bias=True)
    (bytes__sub_bytes_out__12): Linear(in_features=256, out_features=256, bias=True)
    (bytes__sub_bytes_out__13): Linear(in_features=256, out_features=256, bias=True)
    (bytes__sub_bytes_out__14): Linear(in_features=256, out_features=256, bias=True)
    (bytes__sub_bytes_out__15): Linear(in_features=256, out_features=256, bias=True)
  )
)



Optimizer:
Adam (
Parameter Group 0
    amsgrad: False
    betas: (0.9, 0.999)
    eps: 1e-08
    lr: 1.804051353503199e-05
    weight_decay: 7.608481233714784e-05
)



Learning rate scheduler:
None



Epoch 0 done in 500.8987092971802 seconds.
	train acc: 0.0034332275390625 -- 0.004638671875
	train loss: 5.609208106994629 -- 5.615417003631592
…
