Starting trial 0 with seed 1 and device cuda:1.
Hyperparameters:
{'l1_rec_coefficient': 0.3177840006884067, 'gen_classification_coefficient': 20.986835607646604, 'target_repr': 'hamming_weight'}
AveragedModel(
  (input_transform): Conv1d(1, 16, kernel_size=(1,), stride=(1,))
  (downsample_blocks): ModuleList(
    (0): StarGanResidualBlock(
      (residual_modules): ModuleList(
        (0): SnInstanceNorm1d(16, eps=1e-05, momentum=0.1, affine=True, track_running_stats=False)
        (1): ReLU(inplace=True)
        (2): Conv1d(16, 16, kernel_size=(3,), stride=(1,), padding=(1,))
        (3): AvgPool1d(kernel_size=(2,), stride=(2,), padding=(0,))
        (4): SnInstanceNorm1d(16, eps=1e-05, momentum=0.1, affine=True, track_running_stats=False)
        (5): ReLU(inplace=True)
        (6): Conv1d(16, 32, kernel_size=(3,), stride=(1,), padding=(1,))
      )
      (shortcut_modules): ModuleList(
        (0): Conv1d(16, 32, kernel_size=(1,), stride=(1,))
        (1): AvgPool1d(kernel_size=(2,), stride=(2,), padding=(0,))
      )
    )
    (1): StarGanResidualBlock(
      (residual_modules): ModuleList(
        (0): SnInstanceNorm1d(32, eps=1e-05, momentum=0.1, affine=True, track_running_stats=False)
        (1): ReLU(inplace=True)
        (2): Conv1d(32, 32, kernel_size=(3,), stride=(1,), padding=(1,))
        (3): AvgPool1d(kernel_size=(2,), stride=(2,), padding=(0,))
        (4): SnInstanceNorm1d(32, eps=1e-05, momentum=0.1, affine=True, track_running_stats=False)
        (5): ReLU(inplace=True)
        (6): Conv1d(32, 64, kernel_size=(3,), stride=(1,), padding=(1,))
      )
      (shortcut_modules): ModuleList(
        (0): Conv1d(32, 64, kernel_size=(1,), stride=(1,))
        (1): AvgPool1d(kernel_size=(2,), stride=(2,), padding=(0,))
      )
    )
    (2): StarGanResidualBlock(
      (residual_modules): ModuleList(
        (0): SnInstanceNorm1d(64, eps=1e-05, momentum=0.1, affine=True, track_running_stats=False)
        (1): ReLU(inplace=True)
        (2): Conv1d(64, 64, kernel_size=(3,), stride=(1,), padding=(1,))
        (3): AvgPool1d(kernel_size=(2,), stride=(2,), padding=(0,))
        (4): SnInstanceNorm1d(64, eps=1e-05, momentum=0.1, affine=True, track_running_stats=False)
        (5): ReLU(inplace=True)
        (6): Conv1d(64, 128, kernel_size=(3,), stride=(1,), padding=(1,))
      )
      (shortcut_modules): ModuleList(
        (0): Conv1d(64, 128, kernel_size=(1,), stride=(1,))
        (1): AvgPool1d(kernel_size=(2,), stride=(2,), padding=(0,))
      )
    )
    (3): StarGanResidualBlock(
      (residual_modules): ModuleList(
        (0): SnInstanceNorm1d(128, eps=1e-05, momentum=0.1, affine=True, track_running_stats=False)
        (1): ReLU(inplace=True)
        (2): Conv1d(128, 128, kernel_size=(3,), stride=(1,), padding=(1,))
        (3): AvgPool1d(kernel_size=(2,), stride=(2,), padding=(0,))
        (4): SnInstanceNorm1d(128, eps=1e-05, momentum=0.1, affine=True, track_running_stats=False)
        (5): ReLU(inplace=True)
        (6): Conv1d(128, 128, kernel_size=(3,), stride=(1,), padding=(1,))
      )
      (shortcut_modules): ModuleList(
        (0): AvgPool1d(kernel_size=(2,), stride=(2,), padding=(0,))
      )
    )
  )
  (iso_blocks): ModuleList(
    (0): StarGanResidualBlock(
      (residual_modules): ModuleList(
        (0): SnInstanceNorm1d(128, eps=1e-05, momentum=0.1, affine=True, track_running_stats=False)
        (1): ReLU(inplace=True)
        (2): Conv1d(128, 128, kernel_size=(3,), stride=(1,), padding=(1,))
        (3): SnInstanceNorm1d(128, eps=1e-05, momentum=0.1, affine=True, track_running_stats=False)
        (4): ReLU(inplace=True)
        (5): Conv1d(128, 128, kernel_size=(3,), stride=(1,), padding=(1,))
      )
      (shortcut_modules): ModuleList()
    )
    (1): StarGanResidualBlock(
      (residual_modules): ModuleList(
        (0): SnInstanceNorm1d(128, eps=1e-05, momentum=0.1, affine=True, track_running_stats=False)
        (1): ReLU(inplace=True)
        (2): Conv1d(128, 128, kernel_size=(3,), stride=(1,), padding=(1,))
        (3): SnInstanceNorm1d(128, eps=1e-05, momentum=0.1, affine=True, track_running_stats=False)
        (4): ReLU(inplace=True)
        (5): Conv1d(128, 128, kernel_size=(3,), stride=(1,), padding=(1,))
      )
      (shortcut_modules): ModuleList()
    )
    (2): StarGanResidualBlock(
      (residual_modules): ModuleList(
        (0): AdaptiveInstanceNorm1d(
          128, eps=1e-05, momentum=0.1, affine=False, track_running_stats=False
          (get_affine): Linear(in_features=128, out_features=256, bias=True)
        )
        (1): ReLU(inplace=True)
        (2): Conv1d(128, 128, kernel_size=(3,), stride=(1,), padding=(1,))
        (3): AdaptiveInstanceNorm1d(
          128, eps=1e-05, momentum=0.1, affine=False, track_running_stats=False
          (get_affine): Linear(in_features=128, out_features=256, bias=True)
        )
        (4): ReLU(inplace=True)
        (5): Conv1d(128, 128, kernel_size=(3,), stride=(1,), padding=(1,))
      )
      (shortcut_modules): ModuleList()
    )
    (3): StarGanResidualBlock(
      (residual_modules): ModuleList(
        (0): AdaptiveInstanceNorm1d(
          128, eps=1e-05, momentum=0.1, affine=False, track_running_stats=False
          (get_affine): Linear(in_features=128, out_features=256, bias=True)
        )
        (1): ReLU(inplace=True)
        (2): Conv1d(128, 128, kernel_size=(3,), stride=(1,), padding=(1,))
        (3): AdaptiveInstanceNorm1d(
          128, eps=1e-05, momentum=0.1, affine=False, track_running_stats=False
          (get_affine): Linear(in_features=128, out_features=256, bias=True)
        )
        (4): ReLU(inplace=True)
        (5): Conv1d(128, 128, kernel_size=(3,), stride=(1,), padding=(1,))
      )
      (shortcut_modules): ModuleList()
    )
  )
  (upsample_blocks): ModuleList(
    (0): StarGanResidualBlock(
      (residual_modules): ModuleList(
        (0): AdaptiveInstanceNorm1d(
          128, eps=1e-05, momentum=0.1, affine=False, track_running_stats=False
          (get_affine): Linear(in_features=128, out_features=256, bias=True)
        )
        (1): ReLU(inplace=True)
        (2): Conv1d(128, 128, kernel_size=(3,), stride=(1,), padding=(1,))
        (3): Upsample(scale_factor=2.0, mode=nearest)
        (4): AdaptiveInstanceNorm1d(
          128, eps=1e-05, momentum=0.1, affine=False, track_running_stats=False
          (get_affine): Linear(in_features=128, out_features=256, bias=True)
        )
        (5): ReLU(inplace=True)
        (6): Conv1d(128, 128, kernel_size=(3,), stride=(1,), padding=(1,))
      )
      (shortcut_modules): ModuleList(
        (0): Upsample(scale_factor=2.0, mode=nearest)
      )
    )
    (1): StarGanResidualBlock(
      (residual_modules): ModuleList(
        (0): AdaptiveInstanceNorm1d(
          128, eps=1e-05, momentum=0.1, affine=False, track_running_stats=False
          (get_affine): Linear(in_features=128, out_features=256, bias=True)
        )
        (1): ReLU(inplace=True)
        (2): Conv1d(128, 128, kernel_size=(3,), stride=(1,), padding=(1,))
        (3): Upsample(scale_factor=2.0, mode=nearest)
        (4): AdaptiveInstanceNorm1d(
          128, eps=1e-05, momentum=0.1, affine=False, track_running_stats=False
          (get_affine): Linear(in_features=128, out_features=256, bias=True)
        )
        (5): ReLU(inplace=True)
        (6): Conv1d(128, 64, kernel_size=(3,), stride=(1,), padding=(1,))
      )
      (shortcut_modules): ModuleList(
        (0): Conv1d(128, 64, kernel_size=(1,), stride=(1,))
        (1): Upsample(scale_factor=2.0, mode=nearest)
      )
    )
    (2): StarGanResidualBlock(
      (residual_modules): ModuleList(
        (0): AdaptiveInstanceNorm1d(
          64, eps=1e-05, momentum=0.1, affine=False, track_running_stats=False
          (get_affine): Linear(in_features=128, out_features=128, bias=True)
        )
        (1): ReLU(inplace=True)
        (2): Conv1d(64, 64, kernel_size=(3,), stride=(1,), padding=(1,))
        (3): Upsample(scale_factor=2.0, mode=nearest)
        (4): AdaptiveInstanceNorm1d(
          64, eps=1e-05, momentum=0.1, affine=False, track_running_stats=False
          (get_affine): Linear(in_features=128, out_features=128, bias=True)
        )
        (5): ReLU(inplace=True)
        (6): Conv1d(64, 32, kernel_size=(3,), stride=(1,), padding=(1,))
      )
      (shortcut_modules): ModuleList(
        (0): Conv1d(64, 32, kernel_size=(1,), stride=(1,))
        (1): Upsample(scale_factor=2.0, mode=nearest)
      )
    )
    (3): StarGanResidualBlock(
      (residual_modules): ModuleList(
        (0): AdaptiveInstanceNorm1d(
          32, eps=1e-05, momentum=0.1, affine=False, track_running_stats=False
          (get_affine): Linear(in_features=128, out_features=64, bias=True)
        )
        (1): ReLU(inplace=True)
        (2): Conv1d(32, 32, kernel_size=(3,), stride=(1,), padding=(1,))
        (3): Upsample(scale_factor=2.0, mode=nearest)
        (4): AdaptiveInstanceNorm1d(
          32, eps=1e-05, momentum=0.1, affine=False, track_running_stats=False
          (get_affine): Linear(in_features=128, out_features=64, bias=True)
        )
        (5): ReLU(inplace=True)
        (6): Conv1d(32, 16, kernel_size=(3,), stride=(1,), padding=(1,))
      )
      (shortcut_modules): ModuleList(
        (0): Conv1d(32, 16, kernel_size=(1,), stride=(1,))
        (1): Upsample(scale_factor=2.0, mode=nearest)
      )
    )
  )
  (output_transform): Conv1d(16, 1, kernel_size=(1,), stride=(1,))
  (class_embedding): Linear(in_features=144, out_features=128, bias=True)
  (recombine_layers): ModuleList(
    (0): Conv1d(256, 128, kernel_size=(1,), stride=(1,))
    (1): Conv1d(256, 128, kernel_size=(1,), stride=(1,))
    (2): Conv1d(128, 64, kernel_size=(1,), stride=(1,))
    (3): Conv1d(64, 32, kernel_size=(1,), stride=(1,))
    (4): Conv1d(32, 16, kernel_size=(1,), stride=(1,))
  )
)
Discriminator(
  (input_transform): Conv1d(1, 16, kernel_size=(1,), stride=(1,))
  (downsample_blocks): ModuleList(
    (0): StarGanResidualBlock(
      (residual_modules): ModuleList(
        (0): SnInstanceNorm1d(16, eps=1e-05, momentum=0.1, affine=True, track_running_stats=False)
        (1): LeakyReLU(negative_slope=0.1)
        (2): Conv1d(16, 16, kernel_size=(3,), stride=(1,), padding=(1,))
        (3): AvgPool1d(kernel_size=(2,), stride=(2,), padding=(0,))
        (4): SnInstanceNorm1d(16, eps=1e-05, momentum=0.1, affine=True, track_running_stats=False)
        (5): LeakyReLU(negative_slope=0.1)
        (6): Conv1d(16, 32, kernel_size=(3,), stride=(1,), padding=(1,))
      )
      (shortcut_modules): ModuleList(
        (0): Conv1d(16, 32, kernel_size=(1,), stride=(1,))
        (1): AvgPool1d(kernel_size=(2,), stride=(2,), padding=(0,))
      )
    )
    (1): StarGanResidualBlock(
      (residual_modules): ModuleList(
        (0): SnInstanceNorm1d(32, eps=1e-05, momentum=0.1, affine=True, track_running_stats=False)
        (1): LeakyReLU(negative_slope=0.1)
        (2): Conv1d(32, 32, kernel_size=(3,), stride=(1,), padding=(1,))
        (3): AvgPool1d(kernel_size=(2,), stride=(2,), padding=(0,))
        (4): SnInstanceNorm1d(32, eps=1e-05, momentum=0.1, affine=True, track_running_stats=False)
        (5): LeakyReLU(negative_slope=0.1)
        (6): Conv1d(32, 64, kernel_size=(3,), stride=(1,), padding=(1,))
      )
      (shortcut_modules): ModuleList(
        (0): Conv1d(32, 64, kernel_size=(1,), stride=(1,))
        (1): AvgPool1d(kernel_size=(2,), stride=(2,), padding=(0,))
      )
    )
    (2): StarGanResidualBlock(
      (residual_modules): ModuleList(
        (0): SnInstanceNorm1d(64, eps=1e-05, momentum=0.1, affine=True, track_running_stats=False)
        (1): LeakyReLU(negative_slope=0.1)
        (2): Conv1d(64, 64, kernel_size=(3,), stride=(1,), padding=(1,))
        (3): AvgPool1d(kernel_size=(2,), stride=(2,), padding=(0,))
        (4): SnInstanceNorm1d(64, eps=1e-05, momentum=0.1, affine=True, track_running_stats=False)
        (5): LeakyReLU(negative_slope=0.1)
        (6): Conv1d(64, 128, kernel_size=(3,), stride=(1,), padding=(1,))
      )
      (shortcut_modules): ModuleList(
        (0): Conv1d(64, 128, kernel_size=(1,), stride=(1,))
        (1): AvgPool1d(kernel_size=(2,), stride=(2,), padding=(0,))
      )
    )
    (3): StarGanResidualBlock(
      (residual_modules): ModuleList(
        (0): SnInstanceNorm1d(128, eps=1e-05, momentum=0.1, affine=True, track_running_stats=False)
        (1): LeakyReLU(negative_slope=0.1)
        (2): Conv1d(128, 128, kernel_size=(3,), stride=(1,), padding=(1,))
        (3): AvgPool1d(kernel_size=(2,), stride=(2,), padding=(0,))
        (4): SnInstanceNorm1d(128, eps=1e-05, momentum=0.1, affine=True, track_running_stats=False)
        (5): LeakyReLU(negative_slope=0.1)
        (6): Conv1d(128, 128, kernel_size=(3,), stride=(1,), padding=(1,))
      )
      (shortcut_modules): ModuleList(
        (0): AvgPool1d(kernel_size=(2,), stride=(2,), padding=(0,))
      )
    )
    (4): StarGanResidualBlock(
      (residual_modules): ModuleList(
        (0): SnInstanceNorm1d(128, eps=1e-05, momentum=0.1, affine=True, track_running_stats=False)
        (1): LeakyReLU(negative_slope=0.1)
        (2): Conv1d(128, 128, kernel_size=(3,), stride=(1,), padding=(1,))
        (3): AvgPool1d(kernel_size=(2,), stride=(2,), padding=(0,))
        (4): SnInstanceNorm1d(128, eps=1e-05, momentum=0.1, affine=True, track_running_stats=False)
        (5): LeakyReLU(negative_slope=0.1)
        (6): Conv1d(128, 128, kernel_size=(3,), stride=(1,), padding=(1,))
      )
      (shortcut_modules): ModuleList(
        (0): AvgPool1d(kernel_size=(2,), stride=(2,), padding=(0,))
      )
    )
    (5): StarGanResidualBlock(
      (residual_modules): ModuleList(
        (0): SnInstanceNorm1d(128, eps=1e-05, momentum=0.1, affine=True, track_running_stats=False)
        (1): LeakyReLU(negative_slope=0.1)
        (2): Conv1d(128, 128, kernel_size=(3,), stride=(1,), padding=(1,))
        (3): AvgPool1d(kernel_size=(2,), stride=(2,), padding=(0,))
        (4): SnInstanceNorm1d(128, eps=1e-05, momentum=0.1, affine=True, track_running_stats=False)
        (5): LeakyReLU(negative_slope=0.1)
        (6): Conv1d(128, 128, kernel_size=(3,), stride=(1,), padding=(1,))
      )
      (shortcut_modules): ModuleList(
        (0): AvgPool1d(kernel_size=(2,), stride=(2,), padding=(0,))
      )
    )
  )
  (iso_blocks): ModuleList()
  (output_transform): Sequential(
    (0): LeakyReLU(negative_slope=0.1)
    (1): Conv1d(128, 128, kernel_size=(78,), stride=(1,), groups=128)
    (2): Conv1d(128, 128, kernel_size=(1,), stride=(1,))
    (3): LeakyReLU(negative_slope=0.1)
  )
  (classifier_heads): ModuleDict(
    (hamming_weight__sub_bytes_in__0): Linear(in_features=128, out_features=9, bias=True)
    (hamming_weight__sub_bytes_in__1): Linear(in_features=128, out_features=9, bias=True)
    (hamming_weight__sub_bytes_in__2): Linear(in_features=128, out_features=9, bias=True)
    (hamming_weight__sub_bytes_in__3): Linear(in_features=128, out_features=9, bias=True)
    (hamming_weight__sub_bytes_in__4): Linear(in_features=128, out_features=9, bias=True)
    (hamming_weight__sub_bytes_in__5): Linear(in_features=128, out_features=9, bias=True)
    (hamming_weight__sub_bytes_in__6): Linear(in_features=128, out_features=9, bias=True)
    (hamming_weight__sub_bytes_in__7): Linear(in_features=128, out_features=9, bias=True)
    (hamming_weight__sub_bytes_in__8): Linear(in_features=128, out_features=9, bias=True)
    (hamming_weight__sub_bytes_in__9): Linear(in_features=128, out_features=9, bias=True)
    (hamming_weight__sub_bytes_in__10): Linear(in_features=128, out_features=9, bias=True)
    (hamming_weight__sub_bytes_in__11): Linear(in_features=128, out_features=9, bias=True)
    (hamming_weight__sub_bytes_in__12): Linear(in_features=128, out_features=9, bias=True)
    (hamming_weight__sub_bytes_in__13): Linear(in_features=128, out_features=9, bias=True)
    (hamming_weight__sub_bytes_in__14): Linear(in_features=128, out_features=9, bias=True)
    (hamming_weight__sub_bytes_in__15): Linear(in_features=128, out_features=9, bias=True)
  )
  (class_embedding): Linear(in_features=144, out_features=128, bias=True)
  (realism_head): Linear(in_features=128, out_features=1, bias=True)
)

Generator parameters: 1170001
Discriminator parameters: 421281



Starting epoch 1.
Done with training phase. Results:
	disc_grad_norm: 46.382949728497536
	disc_loss_realism: 0.034047774970531464
	disc_loss_leakage: 15.875645637512207
	disc_loss: 15.909692764282227
	disc_acc_realism: 0.9950332641601562
	disc_acc_leakage: 0.46990013122558594
	disc_weight_norm: 41.39007886315958
…
