…
	discriminator_pretraining_epochs: 0
	generator_pretraining_epochs: 0
	gan_training_epochs: 500
	discriminator_posttraining_epochs: 500
	seed: 0
Loading datasets.
AesKeyGroupDataset:
	Available keys: [0, 1, 2, 3, 4, 5, 6, 7, 8, 9, 10, 11, 12, 13, 14, 15]
	Key transform: Compose(
    IntToBinary()
    ToTensor1D()
)
	Byte: 0
	Number of samples available: 10112
	Trace size: torch.Size([1, 3000])
	Key size: torch.Size([1, 8])
	Plaintext size: torch.Size([1, 8])
	Key index size: ()
Constructing generator.
KeyOnlyGenerator(
  (key_trace_map): Sequential(
    (0): Flatten(start_dim=1, end_dim=-1)
    (1): Linear(in_features=8, out_features=64, bias=True)
    (2): ReLU()
    (3): Linear(in_features=64, out_features=256, bias=True)
    (4): ReLU()
    (5): Linear(in_features=256, out_features=3000, bias=True)
    (6): Unflatten(dim=-1, unflattened_size=torch.Size([1, 3000]))
  )
)

Constructing discriminator.
Discriminator(
  (model): Sequential(
    (0): MaxPool1d(kernel_size=4, stride=4, padding=0, dilation=1, ceil_mode=False)
    (1): Stack(
      (F): Sequential(
        (0): Block(
          (F): Sequential(
            (0): BatchNorm1d(1, eps=1e-05, momentum=0.1, affine=True, track_running_stats=True)
            (1): ReLU()
            (2): Conv1d(1, 16, kernel_size=(1,), stride=(1,), bias=False)
            (3): BatchNorm1d(16, eps=1e-05, momentum=0.1, affine=True, track_running_stats=True)
            (4): ReLU()
            (5): Conv1d(16, 16, kernel_size=(3,), stride=(1,), padding=(1,), bias=False)
            (6): BatchNorm1d(16, eps=1e-05, momentum=0.1, affine=True, track_running_stats=True)
            (7): ReLU()
            (8): Conv1d(16, 64, kernel_size=(1,), stride=(1,))
          )
          (Id): Conv1d(1, 64, kernel_size=(1,), stride=(1,))
        )
        (1): Block(
          (F): Sequential(
            (0): BatchNorm1d(64, eps=1e-05, momentum=0.1, affine=True, track_running_stats=True)
            (1): ReLU()
            (2): Conv1d(64, 16, kernel_size=(1,), stride=(1,), bias=False)
            (3): BatchNorm1d(16, eps=1e-05, momentum=0.1, affine=True, track_running_stats=True)
            (4): ReLU()
            (5): Conv1d(16, 16, kernel_size=(3,), stride=(1,), padding=(1,), bias=False)
            (6): BatchNorm1d(16, eps=1e-05, momentum=0.1, affine=True, track_running_stats=True)
            (7): ReLU()
            (8): Conv1d(16, 64, kernel_size=(1,), stride=(1,))
          )
          (Id): Identity()
        )
        (2): Block(
          (F): Sequential(
            (0): BatchNorm1d(64, eps=1e-05, momentum=0.1, affine=True, track_running_stats=True)
            (1): ReLU()
            (2): Conv1d(64, 16, kernel_size=(1,), stride=(1,), bias=False)
            (3): BatchNorm1d(16, eps=1e-05, momentum=0.1, affine=True, track_running_stats=True)
            (4): ReLU()
            (5): Conv1d(16, 16, kernel_size=(3,), stride=(2,), padding=(1,), bias=False)
            (6): BatchNorm1d(16, eps=1e-05, momentum=0.1, affine=True, track_running_stats=True)
            (7): ReLU()
            (8): Conv1d(16, 64, kernel_size=(1,), stride=(1,))
          )
          (Id): MaxPool1d(kernel_size=1, stride=2, padding=0, dilation=1, ceil_mode=False)
        )
      )
    )
    (2): Stack(
      (F): Sequential(
        (0): Block(
          (F): Sequential(
            (0): BatchNorm1d(64, eps=1e-05, momentum=0.1, affine=True, track_running_stats=True)
            (1): ReLU()
            (2): Conv1d(64, 32, kernel_size=(1,), stride=(1,), bias=False)
            (3): BatchNorm1d(32, eps=1e-05, momentum=0.1, affine=True, track_running_stats=True)
            (4): ReLU()
            (5): Conv1d(32, 32, kernel_size=(3,), stride=(1,), padding=(1,), bias=False)
            (6): BatchNorm1d(32, eps=1e-05, momentum=0.1, affine=True, track_running_stats=True)
            (7): ReLU()
            (8): Conv1d(32, 128, kernel_size=(1,), stride=(1,))
          )
          (Id): Conv1d(64, 128, kernel_size=(1,), stride=(1,))
        )
        (1): Block(
          (F): Sequential(
            (0): BatchNorm1d(128, eps=1e-05, momentum=0.1, affine=True, track_running_stats=True)
            (1): ReLU()
            (2): Conv1d(128, 32, kernel_size=(1,), stride=(1,), bias=False)
            (3): BatchNorm1d(32, eps=1e-05, momentum=0.1, affine=True, track_running_stats=True)
            (4): ReLU()
            (5): Conv1d(32, 32, kernel_size=(3,), stride=(1,), padding=(1,), bias=False)
            (6): BatchNorm1d(32, eps=1e-05, momentum=0.1, affine=True, track_running_stats=True)
            (7): ReLU()
            (8): Conv1d(32, 128, kernel_size=(1,), stride=(1,))
          )
          (Id): Identity()
        )
        (2): Block(
          (F): Sequential(
            (0): BatchNorm1d(128, eps=1e-05, momentum=0.1, affine=True, track_running_stats=True)
            (1): ReLU()
            (2): Conv1d(128, 32, kernel_size=(1,), stride=(1,), bias=False)
            (3): BatchNorm1d(32, eps=1e-05, momentum=0.1, affine=True, track_running_stats=True)
            (4): ReLU()
            (5): Conv1d(32, 32, kernel_size=(3,), stride=(1,), padding=(1,), bias=False)
            (6): BatchNorm1d(32, eps=1e-05, momentum=0.1, affine=True, track_running_stats=True)
            (7): ReLU()
            (8): Conv1d(32, 128, kernel_size=(1,), stride=(1,))
          )
          (Id): Identity()
        )
        (3): Block(
          (F): Sequential(
            (0): BatchNorm1d(128, eps=1e-05, momentum=0.1, affine=True, track_running_stats=True)
            (1): ReLU()
            (2): Conv1d(128, 32, kernel_size=(1,), stride=(1,), bias=False)
            (3): BatchNorm1d(32, eps=1e-05, momentum=0.1, affine=True, track_running_stats=True)
            (4): ReLU()
            (5): Conv1d(32, 32, kernel_size=(3,), stride=(2,), padding=(1,), bias=False)
            (6): BatchNorm1d(32, eps=1e-05, momentum=0.1, affine=True, track_running_stats=True)
            (7): ReLU()
            (8): Conv1d(32, 128, kernel_size=(1,), stride=(1,))
          )
          (Id): MaxPool1d(kernel_size=1, stride=2, padding=0, dilation=1, ceil_mode=False)
        )
      )
    )
    (3): Stack(
      (F): Sequential(
        (0): Block(
          (F): Sequential(
            (0): BatchNorm1d(128, eps=1e-05, momentum=0.1, affine=True, track_running_stats=True)
            (1): ReLU()
            (2): Conv1d(128, 64, kernel_size=(1,), stride=(1,), bias=False)
            (3): BatchNorm1d(64, eps=1e-05, momentum=0.1, affine=True, track_running_stats=True)
            (4): ReLU()
            (5): Conv1d(64, 64, kernel_size=(3,), stride=(1,), padding=(1,), bias=False)
            (6): BatchNorm1d(64, eps=1e-05, momentum=0.1, affine=True, track_running_stats=True)
            (7): ReLU()
            (8): Conv1d(64, 256, kernel_size=(1,), stride=(1,))
          )
          (Id): Conv1d(128, 256, kernel_size=(1,), stride=(1,))
        )
        (1): Block(
          (F): Sequential(
            (0): BatchNorm1d(256, eps=1e-05, momentum=0.1, affine=True, track_running_stats=True)
            (1): ReLU()
            (2): Conv1d(256, 64, kernel_size=(1,), stride=(1,), bias=False)
            (3): BatchNorm1d(64, eps=1e-05, momentum=0.1, affine=True, track_running_stats=True)
            (4): ReLU()
            (5): Conv1d(64, 64, kernel_size=(3,), stride=(1,), padding=(1,), bias=False)
            (6): BatchNorm1d(64, eps=1e-05, momentum=0.1, affine=True, track_running_stats=True)
            (7): ReLU()
            (8): Conv1d(64, 256, kernel_size=(1,), stride=(1,))
          )
          (Id): Identity()
        )
        (2): Block(
          (F): Sequential(
            (0): BatchNorm1d(256, eps=1e-05, momentum=0.1, affine=True, track_running_stats=True)
            (1): ReLU()
            (2): Conv1d(256, 64, kernel_size=(1,), stride=(1,), bias=False)
            (3): BatchNorm1d(64, eps=1e-05, momentum=0.1, affine=True, track_running_stats=True)
            (4): ReLU()
            (5): Conv1d(64, 64, kernel_size=(3,), stride=(1,), padding=(1,), bias=False)
            (6): BatchNorm1d(64, eps=1e-05, momentum=0.1, affine=True, track_running_stats=True)
            (7): ReLU()
            (8): Conv1d(64, 256, kernel_size=(1,), stride=(1,))
          )
          (Id): Identity()
        )
        (3): Block(
          (F): Sequential(
            (0): BatchNorm1d(256, eps=1e-05, momentum=0.1, affine=True, track_running_stats=True)
            (1): ReLU()
            (2): Conv1d(256, 64, kernel_size=(1,), stride=(1,), bias=False)
            (3): BatchNorm1d(64, eps=1e-05, momentum=0.1, affine=True, track_running_stats=True)
            (4): ReLU()
            (5): Conv1d(64, 64, kernel_size=(3,), stride=(2,), padding=(1,), bias=False)
            (6): BatchNorm1d(64, eps=1e-05, momentum=0.1, affine=True, track_running_stats=True)
            (7): ReLU()
            (8): Conv1d(64, 256, kernel_size=(1,), stride=(1,))
          )
          (Id): MaxPool1d(kernel_size=1, stride=2, padding=0, dilation=1, ceil_mode=False)
        )
      )
    )
    (4): Stack(
      (F): Sequential(
        (0): Block(
          (F): Sequential(
            (0): BatchNorm1d(256, eps=1e-05, momentum=0.1, affine=True, track_running_stats=True)
            (1): ReLU()
            (2): Conv1d(256, 128, kernel_size=(1,), stride=(1,), bias=False)
            (3): BatchNorm1d(128, eps=1e-05, momentum=0.1, affine=True, track_running_stats=True)
            (4): ReLU()
            (5): Conv1d(128, 128, kernel_size=(3,), stride=(1,), padding=(1,), bias=False)
            (6): BatchNorm1d(128, eps=1e-05, momentum=0.1, affine=True, track_running_stats=True)
            (7): ReLU()
            (8): Conv1d(128, 512, kernel_size=(1,), stride=(1,))
          )
          (Id): Conv1d(256, 512, kernel_size=(1,), stride=(1,))
        )
        (1): Block(
          (F): Sequential(
            (0): BatchNorm1d(512, eps=1e-05, momentum=0.1, affine=True, track_running_stats=True)
            (1): ReLU()
            (2): Conv1d(512, 128, kernel_size=(1,), stride=(1,), bias=False)
            (3): BatchNorm1d(128, eps=1e-05, momentum=0.1, affine=True, track_running_stats=True)
            (4): ReLU()
            (5): Conv1d(128, 128, kernel_size=(3,), stride=(1,), padding=(1,), bias=False)
            (6): BatchNorm1d(128, eps=1e-05, momentum=0.1, affine=True, track_running_stats=True)
            (7): ReLU()
            (8): Conv1d(128, 512, kernel_size=(1,), stride=(1,))
          )
          (Id): Identity()
        )
        (2): Block(
          (F): Sequential(
            (0): BatchNorm1d(512, eps=1e-05, momentum=0.1, affine=True, track_running_stats=True)
            (1): ReLU()
            (2): Conv1d(512, 128, kernel_size=(1,), stride=(1,), bias=False)
            (3): BatchNorm1d(128, eps=1e-05, momentum=0.1, affine=True, track_running_stats=True)
            (4): ReLU()
            (5): Conv1d(128, 128, kernel_size=(3,), stride=(2,), padding=(1,), bias=False)
            (6): BatchNorm1d(128, eps=1e-05, momentum=0.1, affine=True, track_running_stats=True)
            (7): ReLU()
            (8): Conv1d(128, 512, kernel_size=(1,), stride=(1,))
          )
          (Id): MaxPool1d(kernel_size=1, stride=2, padding=0, dilation=1, ceil_mode=False)
        )
      )
    )
    (5): Flatten(start_dim=1, end_dim=-1)
    (6): LazyLinear(in_features=0, out_features=256, bias=True)
  )
)

Calculating initial results.
Training results:
gen_loss: 0.017001482
disc_loss: 5.53727
disc_acc: 0.002103960396039604

…
