…
Beginning trial with FourierGenerator generator.
	Creating generator...
Model: "Generator"
__________________________________________________________________________________________________
Layer (type)                    Output Shape         Param #     Connected to                     
==================================================================================================
input_1 (InputLayer)            [(None, 8)]          0                                            
__________________________________________________________________________________________________
dense_2 (Dense)                 (None, 512)          4608        input_1[0][0]                    
__________________________________________________________________________________________________
re_lu_1 (ReLU)                  (None, 512)          0           dense_2[0][0]                    
__________________________________________________________________________________________________
dense_4 (Dense)                 (None, 512)          4608        input_1[0][0]                    
__________________________________________________________________________________________________
dense_3 (Dense)                 (None, 100)          51300       re_lu_1[0][0]                    
__________________________________________________________________________________________________
re_lu_2 (ReLU)                  (None, 512)          0           dense_4[0][0]                    
__________________________________________________________________________________________________
tf.math.sigmoid (TFOpLambda)    (None, 100)          0           dense_3[0][0]                    
__________________________________________________________________________________________________
input_3 (InputLayer)            [(None, 20000)]      0                                            
__________________________________________________________________________________________________
dense_5 (Dense)                 (None, 100)          51300       re_lu_2[0][0]                    
__________________________________________________________________________________________________
lambda (Lambda)                 (None, 100)          0           tf.math.sigmoid[0][0]            
__________________________________________________________________________________________________
repeat_vector_3 (RepeatVector)  (None, 100, 20000)   0           input_3[0][0]                    
__________________________________________________________________________________________________
tf.math.sigmoid_1 (TFOpLambda)  (None, 100)          0           dense_5[0][0]                    
__________________________________________________________________________________________________
dense (Dense)                   (None, 512)          4608        input_1[0][0]                    
__________________________________________________________________________________________________
repeat_vector_1 (RepeatVector)  (None, 20000, 100)   0           lambda[0][0]                     
__________________________________________________________________________________________________
permute (Permute)               (None, 20000, 100)   0           repeat_vector_3[0][0]            
__________________________________________________________________________________________________
lambda_1 (Lambda)               (None, 100)          0           tf.math.sigmoid_1[0][0]          
__________________________________________________________________________________________________
re_lu (ReLU)                    (None, 512)          0           dense[0][0]                      
__________________________________________________________________________________________________
multiply (Multiply)             (None, 20000, 100)   0           repeat_vector_1[0][0]            
                                                                 permute[0][0]                    
__________________________________________________________________________________________________
repeat_vector_2 (RepeatVector)  (None, 20000, 100)   0           lambda_1[0][0]                   
__________________________________________________________________________________________________
dense_1 (Dense)                 (None, 100)          51300       re_lu[0][0]                      
__________________________________________________________________________________________________
add (Add)                       (None, 20000, 100)   0           multiply[0][0]                   
                                                                 repeat_vector_2[0][0]            
__________________________________________________________________________________________________
repeat_vector (RepeatVector)    (None, 20000, 100)   0           dense_1[0][0]                    
__________________________________________________________________________________________________
lambda_2 (Lambda)               (None, 20000, 100)   0           add[0][0]                        
__________________________________________________________________________________________________
multiply_1 (Multiply)           (None, 20000, 100)   0           repeat_vector[0][0]              
                                                                 lambda_2[0][0]                   
__________________________________________________________________________________________________
lambda_3 (Lambda)               (None, 20000)        0           multiply_1[0][0]                 
__________________________________________________________________________________________________
tf.math.sigmoid_2 (TFOpLambda)  (None, 20000)        0           lambda_3[0][0]                   
__________________________________________________________________________________________________
lambda_4 (Lambda)               (None, 20000)        0           tf.math.sigmoid_2[0][0]          
__________________________________________________________________________________________________
input_2 (InputLayer)            [(None, 20000)]      0                                            
__________________________________________________________________________________________________
add_1 (Add)                     (None, 20000)        0           lambda_4[0][0]                   
                                                                 input_2[0][0]                    
==================================================================================================
Total params: 167,724
Trainable params: 167,724
Non-trainable params: 0
__________________________________________________________________________________________________
		Done. Time taken: 1.014349 seconds.
	Creating discriminator...
Model: "model"
__________________________________________________________________________________________________
Layer (type)                    Output Shape         Param #     Connected to                     
==================================================================================================
input_1 (InputLayer)            [(None, 20000, 1)]   0                                            
__________________________________________________________________________________________________
max_pooling1d (MaxPooling1D)    (None, 5000, 1)      0           input_1[0][0]                    
__________________________________________________________________________________________________
batch_normalization (BatchNorma (None, 5000, 1)      4           max_pooling1d[0][0]              
__________________________________________________________________________________________________
activation (Activation)         (None, 5000, 1)      0           batch_normalization[0][0]        
__________________________________________________________________________________________________
conv1d_1 (Conv1D)               (None, 5000, 16)     16          activation[0][0]                 
__________________________________________________________________________________________________
batch_normalization_1 (BatchNor (None, 5000, 16)     64          conv1d_1[0][0]                   
__________________________________________________________________________________________________
activation_1 (Activation)       (None, 5000, 16)     0           batch_normalization_1[0][0]      
__________________________________________________________________________________________________
conv1d_2 (Conv1D)               (None, 5000, 16)     768         activation_1[0][0]               
__________________________________________________________________________________________________
batch_normalization_2 (BatchNor (None, 5000, 16)     64          conv1d_2[0][0]                   
__________________________________________________________________________________________________
activation_2 (Activation)       (None, 5000, 16)     0           batch_normalization_2[0][0]      
__________________________________________________________________________________________________
conv1d (Conv1D)                 (None, 5000, 64)     128         activation[0][0]                 
__________________________________________________________________________________________________
conv1d_3 (Conv1D)               (None, 5000, 64)     1088        activation_2[0][0]               
__________________________________________________________________________________________________
add (Add)                       (None, 5000, 64)     0           conv1d[0][0]                     
                                                                 conv1d_3[0][0]                   
__________________________________________________________________________________________________
batch_normalization_3 (BatchNor (None, 5000, 64)     256         add[0][0]                        
__________________________________________________________________________________________________
activation_3 (Activation)       (None, 5000, 64)     0           batch_normalization_3[0][0]      
__________________________________________________________________________________________________
conv1d_4 (Conv1D)               (None, 5000, 16)     1024        activation_3[0][0]               
__________________________________________________________________________________________________
batch_normalization_4 (BatchNor (None, 5000, 16)     64          conv1d_4[0][0]                   
__________________________________________________________________________________________________
activation_4 (Activation)       (None, 5000, 16)     0           batch_normalization_4[0][0]      
__________________________________________________________________________________________________
conv1d_5 (Conv1D)               (None, 5000, 16)     768         activation_4[0][0]               
__________________________________________________________________________________________________
batch_normalization_5 (BatchNor (None, 5000, 16)     64          conv1d_5[0][0]                   
__________________________________________________________________________________________________
activation_5 (Activation)       (None, 5000, 16)     0           batch_normalization_5[0][0]      
__________________________________________________________________________________________________
conv1d_6 (Conv1D)               (None, 5000, 64)     1088        activation_5[0][0]               
__________________________________________________________________________________________________
add_1 (Add)                     (None, 5000, 64)     0           activation_3[0][0]               
                                                                 conv1d_6[0][0]                   
__________________________________________________________________________________________________
batch_normalization_6 (BatchNor (None, 5000, 64)     256         add_1[0][0]                      
__________________________________________________________________________________________________
activation_6 (Activation)       (None, 5000, 64)     0           batch_normalization_6[0][0]      
__________________________________________________________________________________________________
conv1d_7 (Conv1D)               (None, 5000, 16)     1024        activation_6[0][0]               
__________________________________________________________________________________________________
batch_normalization_7 (BatchNor (None, 5000, 16)     64          conv1d_7[0][0]                   
__________________________________________________________________________________________________
activation_7 (Activation)       (None, 5000, 16)     0           batch_normalization_7[0][0]      
__________________________________________________________________________________________________
conv1d_8 (Conv1D)               (None, 2500, 16)     768         activation_7[0][0]               
__________________________________________________________________________________________________
batch_normalization_8 (BatchNor (None, 2500, 16)     64          conv1d_8[0][0]                   
__________________________________________________________________________________________________
activation_8 (Activation)       (None, 2500, 16)     0           batch_normalization_8[0][0]      
__________________________________________________________________________________________________
max_pooling1d_1 (MaxPooling1D)  (None, 2500, 64)     0           activation_6[0][0]               
__________________________________________________________________________________________________
conv1d_9 (Conv1D)               (None, 2500, 64)     1088        activation_8[0][0]               
__________________________________________________________________________________________________
add_2 (Add)                     (None, 2500, 64)     0           max_pooling1d_1[0][0]            
                                                                 conv1d_9[0][0]                   
__________________________________________________________________________________________________
batch_normalization_9 (BatchNor (None, 2500, 64)     256         add_2[0][0]                      
__________________________________________________________________________________________________
activation_9 (Activation)       (None, 2500, 64)     0           batch_normalization_9[0][0]      
__________________________________________________________________________________________________
conv1d_11 (Conv1D)              (None, 2500, 32)     2048        activation_9[0][0]               
__________________________________________________________________________________________________
batch_normalization_10 (BatchNo (None, 2500, 32)     128         conv1d_11[0][0]                  
__________________________________________________________________________________________________
activation_10 (Activation)      (None, 2500, 32)     0           batch_normalization_10[0][0]     
__________________________________________________________________________________________________
conv1d_12 (Conv1D)              (None, 2500, 32)     3072        activation_10[0][0]              
__________________________________________________________________________________________________
batch_normalization_11 (BatchNo (None, 2500, 32)     128         conv1d_12[0][0]                  
__________________________________________________________________________________________________
activation_11 (Activation)      (None, 2500, 32)     0           batch_normalization_11[0][0]     
__________________________________________________________________________________________________
conv1d_10 (Conv1D)              (None, 2500, 128)    8320        activation_9[0][0]               
__________________________________________________________________________________________________
conv1d_13 (Conv1D)              (None, 2500, 128)    4224        activation_11[0][0]              
__________________________________________________________________________________________________
add_3 (Add)                     (None, 2500, 128)    0           conv1d_10[0][0]                  
                                                                 conv1d_13[0][0]                  
__________________________________________________________________________________________________
batch_normalization_12 (BatchNo (None, 2500, 128)    512         add_3[0][0]                      
__________________________________________________________________________________________________
activation_12 (Activation)      (None, 2500, 128)    0           batch_normalization_12[0][0]     
__________________________________________________________________________________________________
conv1d_14 (Conv1D)              (None, 2500, 32)     4096        activation_12[0][0]              
__________________________________________________________________________________________________
batch_normalization_13 (BatchNo (None, 2500, 32)     128         conv1d_14[0][0]                  
__________________________________________________________________________________________________
activation_13 (Activation)      (None, 2500, 32)     0           batch_normalization_13[0][0]     
__________________________________________________________________________________________________
conv1d_15 (Conv1D)              (None, 2500, 32)     3072        activation_13[0][0]              
__________________________________________________________________________________________________
batch_normalization_14 (BatchNo (None, 2500, 32)     128         conv1d_15[0][0]                  
__________________________________________________________________________________________________
activation_14 (Activation)      (None, 2500, 32)     0           batch_normalization_14[0][0]     
__________________________________________________________________________________________________
conv1d_16 (Conv1D)              (None, 2500, 128)    4224        activation_14[0][0]              
__________________________________________________________________________________________________
add_4 (Add)                     (None, 2500, 128)    0           activation_12[0][0]              
                                                                 conv1d_16[0][0]                  
__________________________________________________________________________________________________
batch_normalization_15 (BatchNo (None, 2500, 128)    512         add_4[0][0]                      
__________________________________________________________________________________________________
activation_15 (Activation)      (None, 2500, 128)    0           batch_normalization_15[0][0]     
__________________________________________________________________________________________________
conv1d_17 (Conv1D)              (None, 2500, 32)     4096        activation_15[0][0]              
__________________________________________________________________________________________________
batch_normalization_16 (BatchNo (None, 2500, 32)     128         conv1d_17[0][0]                  
__________________________________________________________________________________________________
activation_16 (Activation)      (None, 2500, 32)     0           batch_normalization_16[0][0]     
__________________________________________________________________________________________________
conv1d_18 (Conv1D)              (None, 2500, 32)     3072        activation_16[0][0]              
__________________________________________________________________________________________________
batch_normalization_17 (BatchNo (None, 2500, 32)     128         conv1d_18[0][0]                  
__________________________________________________________________________________________________
activation_17 (Activation)      (None, 2500, 32)     0           batch_normalization_17[0][0]     
__________________________________________________________________________________________________
conv1d_19 (Conv1D)              (None, 2500, 128)    4224        activation_17[0][0]              
__________________________________________________________________________________________________
add_5 (Add)                     (None, 2500, 128)    0           activation_15[0][0]              
                                                                 conv1d_19[0][0]                  
__________________________________________________________________________________________________
batch_normalization_18 (BatchNo (None, 2500, 128)    512         add_5[0][0]                      
__________________________________________________________________________________________________
activation_18 (Activation)      (None, 2500, 128)    0           batch_normalization_18[0][0]     
__________________________________________________________________________________________________
conv1d_20 (Conv1D)              (None, 2500, 32)     4096        activation_18[0][0]              
__________________________________________________________________________________________________
batch_normalization_19 (BatchNo (None, 2500, 32)     128         conv1d_20[0][0]                  
__________________________________________________________________________________________________
activation_19 (Activation)      (None, 2500, 32)     0           batch_normalization_19[0][0]     
__________________________________________________________________________________________________
conv1d_21 (Conv1D)              (None, 1250, 32)     3072        activation_19[0][0]              
__________________________________________________________________________________________________
batch_normalization_20 (BatchNo (None, 1250, 32)     128         conv1d_21[0][0]                  
__________________________________________________________________________________________________
activation_20 (Activation)      (None, 1250, 32)     0           batch_normalization_20[0][0]     
__________________________________________________________________________________________________
max_pooling1d_2 (MaxPooling1D)  (None, 1250, 128)    0           activation_18[0][0]              
__________________________________________________________________________________________________
conv1d_22 (Conv1D)              (None, 1250, 128)    4224        activation_20[0][0]              
__________________________________________________________________________________________________
add_6 (Add)                     (None, 1250, 128)    0           max_pooling1d_2[0][0]            
                                                                 conv1d_22[0][0]                  
__________________________________________________________________________________________________
batch_normalization_21 (BatchNo (None, 1250, 128)    512         add_6[0][0]                      
__________________________________________________________________________________________________
activation_21 (Activation)      (None, 1250, 128)    0           batch_normalization_21[0][0]     
__________________________________________________________________________________________________
conv1d_24 (Conv1D)              (None, 1250, 64)     8192        activation_21[0][0]              
__________________________________________________________________________________________________
batch_normalization_22 (BatchNo (None, 1250, 64)     256         conv1d_24[0][0]                  
__________________________________________________________________________________________________
activation_22 (Activation)      (None, 1250, 64)     0           batch_normalization_22[0][0]     
__________________________________________________________________________________________________
conv1d_25 (Conv1D)              (None, 1250, 64)     12288       activation_22[0][0]              
__________________________________________________________________________________________________
batch_normalization_23 (BatchNo (None, 1250, 64)     256         conv1d_25[0][0]                  
__________________________________________________________________________________________________
activation_23 (Activation)      (None, 1250, 64)     0           batch_normalization_23[0][0]     
__________________________________________________________________________________________________
conv1d_23 (Conv1D)              (None, 1250, 256)    33024       activation_21[0][0]              
__________________________________________________________________________________________________
conv1d_26 (Conv1D)              (None, 1250, 256)    16640       activation_23[0][0]              
__________________________________________________________________________________________________
add_7 (Add)                     (None, 1250, 256)    0           conv1d_23[0][0]                  
                                                                 conv1d_26[0][0]                  
__________________________________________________________________________________________________
batch_normalization_24 (BatchNo (None, 1250, 256)    1024        add_7[0][0]                      
__________________________________________________________________________________________________
activation_24 (Activation)      (None, 1250, 256)    0           batch_normalization_24[0][0]     
__________________________________________________________________________________________________
conv1d_27 (Conv1D)              (None, 1250, 64)     16384       activation_24[0][0]              
__________________________________________________________________________________________________
batch_normalization_25 (BatchNo (None, 1250, 64)     256         conv1d_27[0][0]                  
__________________________________________________________________________________________________
activation_25 (Activation)      (None, 1250, 64)     0           batch_normalization_25[0][0]     
__________________________________________________________________________________________________
conv1d_28 (Conv1D)              (None, 1250, 64)     12288       activation_25[0][0]              
__________________________________________________________________________________________________
batch_normalization_26 (BatchNo (None, 1250, 64)     256         conv1d_28[0][0]                  
__________________________________________________________________________________________________
activation_26 (Activation)      (None, 1250, 64)     0           batch_normalization_26[0][0]     
__________________________________________________________________________________________________
conv1d_29 (Conv1D)              (None, 1250, 256)    16640       activation_26[0][0]              
__________________________________________________________________________________________________
add_8 (Add)                     (None, 1250, 256)    0           activation_24[0][0]              
                                                                 conv1d_29[0][0]                  
__________________________________________________________________________________________________
batch_normalization_27 (BatchNo (None, 1250, 256)    1024        add_8[0][0]                      
__________________________________________________________________________________________________
activation_27 (Activation)      (None, 1250, 256)    0           batch_normalization_27[0][0]     
__________________________________________________________________________________________________
conv1d_30 (Conv1D)              (None, 1250, 64)     16384       activation_27[0][0]              
__________________________________________________________________________________________________
batch_normalization_28 (BatchNo (None, 1250, 64)     256         conv1d_30[0][0]                  
__________________________________________________________________________________________________
activation_28 (Activation)      (None, 1250, 64)     0           batch_normalization_28[0][0]     
__________________________________________________________________________________________________
conv1d_31 (Conv1D)              (None, 1250, 64)     12288       activation_28[0][0]              
__________________________________________________________________________________________________
batch_normalization_29 (BatchNo (None, 1250, 64)     256         conv1d_31[0][0]                  
__________________________________________________________________________________________________
activation_29 (Activation)      (None, 1250, 64)     0           batch_normalization_29[0][0]     
__________________________________________________________________________________________________
conv1d_32 (Conv1D)              (None, 1250, 256)    16640       activation_29[0][0]              
__________________________________________________________________________________________________
add_9 (Add)                     (None, 1250, 256)    0           activation_27[0][0]              
                                                                 conv1d_32[0][0]                  
__________________________________________________________________________________________________
batch_normalization_30 (BatchNo (None, 1250, 256)    1024        add_9[0][0]                      
__________________________________________________________________________________________________
activation_30 (Activation)      (None, 1250, 256)    0           batch_normalization_30[0][0]     
__________________________________________________________________________________________________
conv1d_33 (Conv1D)              (None, 1250, 64)     16384       activation_30[0][0]              
__________________________________________________________________________________________________
batch_normalization_31 (BatchNo (None, 1250, 64)     256         conv1d_33[0][0]                  
__________________________________________________________________________________________________
activation_31 (Activation)      (None, 1250, 64)     0           batch_normalization_31[0][0]     
__________________________________________________________________________________________________
conv1d_34 (Conv1D)              (None, 625, 64)      12288       activation_31[0][0]              
__________________________________________________________________________________________________
batch_normalization_32 (BatchNo (None, 625, 64)      256         conv1d_34[0][0]                  
__________________________________________________________________________________________________
activation_32 (Activation)      (None, 625, 64)      0           batch_normalization_32[0][0]     
__________________________________________________________________________________________________
max_pooling1d_3 (MaxPooling1D)  (None, 625, 256)     0           activation_30[0][0]              
__________________________________________________________________________________________________
conv1d_35 (Conv1D)              (None, 625, 256)     16640       activation_32[0][0]              
__________________________________________________________________________________________________
add_10 (Add)                    (None, 625, 256)     0           max_pooling1d_3[0][0]            
                                                                 conv1d_35[0][0]                  
__________________________________________________________________________________________________
batch_normalization_33 (BatchNo (None, 625, 256)     1024        add_10[0][0]                     
__________________________________________________________________________________________________
activation_33 (Activation)      (None, 625, 256)     0           batch_normalization_33[0][0]     
__________________________________________________________________________________________________
conv1d_37 (Conv1D)              (None, 625, 128)     32768       activation_33[0][0]              
__________________________________________________________________________________________________
batch_normalization_34 (BatchNo (None, 625, 128)     512         conv1d_37[0][0]                  
__________________________________________________________________________________________________
activation_34 (Activation)      (None, 625, 128)     0           batch_normalization_34[0][0]     
__________________________________________________________________________________________________
conv1d_38 (Conv1D)              (None, 625, 128)     49152       activation_34[0][0]              
__________________________________________________________________________________________________
batch_normalization_35 (BatchNo (None, 625, 128)     512         conv1d_38[0][0]                  
__________________________________________________________________________________________________
activation_35 (Activation)      (None, 625, 128)     0           batch_normalization_35[0][0]     
__________________________________________________________________________________________________
conv1d_36 (Conv1D)              (None, 625, 512)     131584      activation_33[0][0]              
__________________________________________________________________________________________________
conv1d_39 (Conv1D)              (None, 625, 512)     66048       activation_35[0][0]              
__________________________________________________________________________________________________
add_11 (Add)                    (None, 625, 512)     0           conv1d_36[0][0]                  
                                                                 conv1d_39[0][0]                  
__________________________________________________________________________________________________
batch_normalization_36 (BatchNo (None, 625, 512)     2048        add_11[0][0]                     
__________________________________________________________________________________________________
activation_36 (Activation)      (None, 625, 512)     0           batch_normalization_36[0][0]     
__________________________________________________________________________________________________
conv1d_40 (Conv1D)              (None, 625, 128)     65536       activation_36[0][0]              
__________________________________________________________________________________________________
batch_normalization_37 (BatchNo (None, 625, 128)     512         conv1d_40[0][0]                  
__________________________________________________________________________________________________
activation_37 (Activation)      (None, 625, 128)     0           batch_normalization_37[0][0]     
__________________________________________________________________________________________________
conv1d_41 (Conv1D)              (None, 625, 128)     49152       activation_37[0][0]              
__________________________________________________________________________________________________
batch_normalization_38 (BatchNo (None, 625, 128)     512         conv1d_41[0][0]                  
__________________________________________________________________________________________________
activation_38 (Activation)      (None, 625, 128)     0           batch_normalization_38[0][0]     
__________________________________________________________________________________________________
conv1d_42 (Conv1D)              (None, 625, 512)     66048       activation_38[0][0]              
__________________________________________________________________________________________________
add_12 (Add)                    (None, 625, 512)     0           activation_36[0][0]              
                                                                 conv1d_42[0][0]                  
__________________________________________________________________________________________________
batch_normalization_39 (BatchNo (None, 625, 512)     2048        add_12[0][0]                     
__________________________________________________________________________________________________
activation_39 (Activation)      (None, 625, 512)     0           batch_normalization_39[0][0]     
__________________________________________________________________________________________________
conv1d_43 (Conv1D)              (None, 625, 128)     65536       activation_39[0][0]              
__________________________________________________________________________________________________
batch_normalization_40 (BatchNo (None, 625, 128)     512         conv1d_43[0][0]                  
__________________________________________________________________________________________________
activation_40 (Activation)      (None, 625, 128)     0           batch_normalization_40[0][0]     
__________________________________________________________________________________________________
conv1d_44 (Conv1D)              (None, 313, 128)     49152       activation_40[0][0]              
__________________________________________________________________________________________________
batch_normalization_41 (BatchNo (None, 313, 128)     512         conv1d_44[0][0]                  
__________________________________________________________________________________________________
activation_41 (Activation)      (None, 313, 128)     0           batch_normalization_41[0][0]     
__________________________________________________________________________________________________
max_pooling1d_4 (MaxPooling1D)  (None, 313, 512)     0           activation_39[0][0]              
__________________________________________________________________________________________________
conv1d_45 (Conv1D)              (None, 313, 512)     66048       activation_41[0][0]              
__________________________________________________________________________________________________
add_13 (Add)                    (None, 313, 512)     0           max_pooling1d_4[0][0]            
                                                                 conv1d_45[0][0]                  
__________________________________________________________________________________________________
global_average_pooling1d (Globa (None, 512)          0           add_13[0][0]                     
__________________________________________________________________________________________________
dropout (Dropout)               (None, 512)          0           global_average_pooling1d[0][0]   
__________________________________________________________________________________________________
dense (Dense)                   (None, 256)          131328      dropout[0][0]                    
__________________________________________________________________________________________________
batch_normalization_42 (BatchNo (None, 256)          1024        dense[0][0]                      
__________________________________________________________________________________________________
activation_42 (Activation)      (None, 256)          0           batch_normalization_42[0][0]     
__________________________________________________________________________________________________
dense_1 (Dense)                 (None, 256)          65792       activation_42[0][0]              
==================================================================================================
Total params: 1,122,388
Trainable params: 0
Non-trainable params: 1,122,388
__________________________________________________________________________________________________
		Done. Time taken: 8.699105 seconds.
	Creating cumulative model...
Model: "model"
__________________________________________________________________________________________________
…
